notebooks/pierre/cnn_baseline.pt (torch, 98771 bytes, 8 tensors)

encoder.0.weight f4 [16, 3, 3, 3]
00000000: 684f 0ebe e2b7 2a3d a4b6 d63d 3b68 a0ba
00000010: ba14 75bd ba94 efbd af19 833d 1849 013e
00000020: e624 99bd b67e a8bd 2c52 e73d ddd3 a63d
00000030: 5229 1fbe 3dbe 193e 1175 513e bf19 a5bd
00000040: b5a7 a53d afa4 f83d 4110 a9bc 86f3 febc
00000050: 7cc9 343e 22b7 96bd 7052 343e 409f 5e3e
00000060: 6de5 4ebe 61d8 d83d 3b2f 003e 1618 323e
00000070: 8bef 39ba b4bd 1c3e db84 15be 09b0 bcbd
00000080: f709 28bd c859 74bd 3061 613c 42a7 e33d
00000090: d592 51bb b528 853c 0769 0b3d ec41 efbd
000000a0: 71cd 293d 4a53 d43d ea3c 41be 9a98 da3d
000000b0: 4099 0c3e ebb9 56be 62e7 6ebb 0079 6d3d
000000c0: c8e4 d13d 096a a33d a1cd d43d 67b8 6dbe
000000d0: 1eb7 af3d 49b2 623e cede 103e 0523 863d
000000e0: 22ea 40be 9eb2 e03c 8adb 48be ccf7 b43a
000000f0: d5aa 85bd 5657 3fbe 5d44 4dbe 6af6 66bc
00000100: 2555 013e 617e d5bd ddb8 4bbe 30a3 fbbd
00000110: 4f7d 5b3d 0d7f 50bd 7032 3ebe 0871 1cbd
00000120: efeb c4bd 3bc4 f73d 1dae bfbd 361f ccbd
00000130: 4dac 8d3d 3474 09be 0b29 1bbd 1f4d 64bc
00000140: 3b0b 283e f672 573d 47d7 273d 5401 af3b
00000150: 0dec 0b3e 2b15 ce3d 63a9 793d bcce 00be
00000160: 1fd4 20be d8e3 0a3d 7b8e 21be c882 2e3e
00000170: 58bc 703d b36f 2f3d 0766 3c3e e99d d73d
00000180: 5e51 d73d b0b1 433d 8616 34be f24e b83d
00000190: 25be 23be dd72 5e3e 1956 c6bd fb8a 3f3e
000001a0: 0bcc 0a3d d8e1 c7bb 3ad5 a2bd 18b3 26be
000001b0: 8bfa b7bd ac13 2ebd a157 d83d 2e63 0a3e
000001c0: 6a59 1e3e 1b66 21be 114c ebbb bd84 353e
000001d0: a114 cebd fed1 04be d145 183e a472 dd3d
000001e0: 58dc 6cbd f20c 88bd 1d1f 2bbe 7398 4b3d
000001f0: 7ec2 0f3e 8b04 21be df89 50bc 29fe e43d
00000200: 859f 0d3e 3590 e83d a8ee c73d 5a33 eebd
00000210: 1335 213d abc6 f23d 8818 0ebe 2457 363e
00000220: 3cc5 393d ace4 19be a8b5 c6bd 1b36 47bc
00000230: 3704 0bbe 55b1 6e3e 9afe e8bc 8e49 ce3c
00000240: dd25 5e3e 960d 22bc 6c74 2b3e a1ae f5bd
00000250: 34b3 553c 02e6 8dbd 54e3 2b3e 5688 b23d
00000260: 3bfd 5e3e 274c 26be ed69 eabc 20e2 3d3d
00000270: fba1 ed3d ad8e ae3d a822 84bd 095c 583e
00000280: 704e fbbc 82d1 323e 6d10 58be 9c30 643e
00000290: 3e58 803e a220 2cbe 48e5 2d3e bfa4 9c3d
000002a0: db14 36bd 36d6 05be 8ef7 503d 4014 033e
000002b0: a696 773d 5ec3 693e b9df 713c 5aff a83d
000002c0: 2054 23bd 4cc9 df3b b2be 3bbe 5781 f4bc
000002d0: 2ecf e8bd d948 4f3e 10c5 2e3e 3bb4 113d
000002e0: f187 aabd d8ff 4abd 8a19 62be 1e66 063c
000002f0: c667 873d 795f 19be 8714 3cbd 967a 36be
00000300: ad79 5dbe 191d 8c3d 5c39 ef3d 2741 d33c
00000310: c0c4 563d 65ab 3bbd 81c4 25be fba0 10be
00000320: 7084 4bbe 23f2 963d 3ffb 2ebe 677c 3dbe
00000330: dcd1 f73d 64f9 243d 35ed bbbb e2ff 3dbe
00000340: 292f 0bbe 2f9e 99bc 6b61 2cbe 9375 a4bd
00000350: 40e2 abbd 449f 01be f24b 8b3c 17a1 c5bd
00000360: 91a6 0abe 9348 42bd 0c8a 863d 9721 8d3d
00000370: 9dd5 223e 7ebd 1bbe b268 483e 978c 393e
00000380: c823 06bd 226a 2e3d a73e 12be cfee 033e
00000390: b686 86bd dcc0 c1bd a0d0 30be 2f9e f9bd
000003a0: 793f 82bd 5ec0 8d3d a14e 09be a0f0 8a3d
000003b0: aff0 cc3d 96e1 55be 6da5 aa3d 22cd d23c
000003c0: 71a2 b23d 8d1e 3fbe 55f6 e7bb ef4b 943c
000003d0: 0731 bf3c 9b42 253e 4ef7 25be b1e9 d53d
000003e0: c54e 7a3e 6b89 b6bd 9688 d33d cf8a d13d
000003f0: f68e 82be 43ae e23d 7d94 053e 87fe aabd
-0.13897479 0.04167927 0.10484055 -0.0012238094 -0.05983422 -0.11698289 0.06401383 0.1262554
-0.07477741 -0.08227293 0.1129497 0.081458785 -0.15543106 0.15013976 0.20454814 -0.08061551
0.08088628 0.12140786 -0.020637633 -0.03112198 0.17654985 -0.073591486 0.17609572 0.21740437
-0.20204706 0.10588146 0.12518017 0.17392 -0.00070928846 0.15306741 -0.14601462 -0.092132635
-0.04102513 -0.059655935 0.013756081 0.11115886 -0.0031978388 0.016254762 0.03403571 -0.116824955
0.04145569 0.10367449 -0.18870893 0.10673638 0.13730335 -0.2096936 -0.0036453833 0.057976723
0.10248715 0.07979209 0.10390783 -0.23214875 0.08579849 0.22138323 0.14147493 0.06549648
-0.18839315 0.027428921 -0.19614998 0.0013806759 -0.06526724 -0.1868566 -0.2004561 -0.014096836
0.12630136 -0.104244955 -0.19894738 -0.12286985 0.0535863 -0.050902415 -0.18573928 -0.038193733
-0.09615313 0.12097975 -0.09359381 -0.099668905 0.069176294 -0.13423234 -0.03788094 -0.013934403
0.16410534 0.05259987 0.04097679 0.0053407345 0.13664265 0.10062631 0.060952555 -0.12578863
-0.15705918 0.033908695 -0.15777008 0.17042077 0.05877337 0.042831134 0.18398295 0.10528166
0.105135664 0.047776878 -0.17586717 0.089994326 -0.15990503 0.21723504 -0.096843906 0.1870536
0.033885997 -0.0060999207 -0.07950826 -0.16279256 -0.08983334 -0.04249923 0.10563589 0.13514397
0.15463796 -0.15761606 -0.0071806987 0.17726417 -0.100625284 -0.1297073 0.14870383 0.108128816
-0.057827324 -0.06643094 -0.16711088 0.049705934 0.14039037 -0.1572439 -0.0127281835 0.1118129
0.13830383 0.1135563 0.09762317 -0.11630888 0.039357256 0.11854299 -0.13876545 0.17806679
0.045354113 -0.15028638 -0.09702617 -0.012158896 -0.13575827 0.23309834 -0.028441716 0.025181558
0.21694131 -0.009890934 0.1674363 -0.119961984 0.013043214 -0.06928636 0.16785938 0.0871741
0.21776287 -0.16239987 -0.028614962 0.046358228 0.11603161 0.08523307 -0.06451923 0.21128859
-0.03067705 0.17462733 -0.21100016 0.22284168 0.25067323 -0.16809323 0.16981995 0.0764861
-0.044453483 -0.13069996 0.051017337 0.12800694 0.060446404 0.22828433 0.014762812 0.082518294
-0.03987515 0.0068294164 -0.18334463 -0.02984683 -0.113676414 0.20242633 0.17067361 0.03557227
-0.0832671 -0.049560398 -0.22080055 0.008203058 0.0661159 -0.14977826 -0.045918014 -0.178202
-0.21628447 0.068414874 0.11680862 0.025787903 0.05243373 -0.04581775 -0.16188242 -0.14123909
-0.1987474 0.07370403 -0.1708803 -0.18504487 0.121005744 0.0402769 -0.0057350644 -0.18554643
-0.13592209 -0.018752186 -0.16834037 -0.08030238 -0.08392763 -0.12658411 0.017003987 -0.09649866
-0.13540103 -0.047432493 0.06569299 0.068911724 0.159018 -0.15209004 0.19571188 0.18120037
-0.032748967 0.042581685 -0.14281712 0.12884067 -0.06568663 -0.09460613 -0.17267084 -0.12188374
-0.06359763 0.06921457 -0.13408901 0.06784177 0.10006844 -0.20886835 0.08332334 0.02573258
0.087223895 -0.18663998 -0.0070789256 0.018102614 0.023338808 0.16138689 -0.1620762 0.10444964
0.2444411 -0.08912929 0.10328786 0.10231554 -0.25499696 0.11068394 0.13044925 -0.083493285

encoder.0.bias f4 [16]
00000000: 80c3 273e d744 e03c 47d7 42be a8d7 2d3e
00000010: 7a1d 2f3e 5687 223e f32a 2c3e 2221 ef3d
00000020: c4e4 dfbc 1b95 b9bd 963a 2d3d c44c 913d
00000030: 3be0 c1bc d722 3cbe 5d01 dbbd e745 c73c
0.16383171 0.027376575 -0.19027434 0.16976798 0.17101088 0.15871939 0.16813259 0.116762415
-0.027330764 -0.09061643 0.0422922 0.0709472 -0.023666492 -0.18372665 -0.106936194 0.024325324

encoder.3.weight f4 [32, 16, 3, 3]
00000000: 5d69 6f3d f46c 23bd b91d 21bc c5bb bc3c
00000010: 92cc 9d3d 1ce8 7dbc 653b 3e3d 04d9 69bd
00000020: ab9d 5c3d 9b42 84bd dea4 f2bd c553 a5bc
00000030: 1480 00bd d775 78bd 345d 49bd a0b5 09be
00000040: eaa9 0dbe 7b2b a2bc 0a56 dd3d a11f a83d
00000050: f33b 2a3d 1c62 ae3d c855 8a3d 4b33 b63b
00000060: fb08 f2bc 9b34 413d 79e4 443d e10e 893c
00000070: 7227 31bd 01af 573d 06dd edbc 33d6 f9bc
00000080: 0a67 943c 1886 1bbd 4427 25bc 7a0e e43c
00000090: 255e 94bc dda7 91bd 6ac7 7bbd 1151 33bc
000000a0: b413 8ebd 2f07 953b ab60 0bbd 5ee0 eb3c
000000b0: 36b4 c7bd 521b 9ebd 9157 503c a361 27bd
000000c0: d05d 80bd e04e a2bd 5ec0 94bd ccee 793d
000000d0: 8016 833d 0aac acbd dcfa 28be 4c2c cfbd
000000e0: 3bef 9abd f73f 31be 1380 32be cdc9 a5bd
000000f0: 5b47 30be 946e 1fbe 5bf9 89bd 0f23 de3d
00000100: 6828 393d b65b c63d ebe5 da3d 1df6 3b3d
00000110: 6bf3 d93d 06eb c93d e847 8d3d 6a5f d7b9
00000120: dbcb 89bd 366f c9bd d9d9 403c 5f71 fb3b
00000130: 02e0 093d 7463 17bc a848 b3bc 0c35 3a39
00000140: 2bf7 b338 6b64 0fbd 9ca1 5bbd 04a1 c93b
00000150: 87b8 883a 8a48 c3bc f846 92bd 8d57 0bbe
00000160: ff8d d7bd 1662 66bd 2ad3 66bc 8122 09bc
00000170: cc4e 9a3c 9cb8 3abe 5e52 3fbe ae65 00be
00000180: 4a2c 71be 4f95 07be e14f 43be 911e 16be
00000190: afce c4bd 32ca 3cbe fd90 18be 9a54 fabd
000001a0: 8f0e d0bd 4ab9 ccbd c689 36be 8248 49be
000001b0: df5f 70bd 6f53 7fbd 9732 2bbe ba39 49be
000001c0: 7fdf c9bd 1309 45be 7ed4 15be 989e 13be
000001d0: 4421 05be 7eef c6bc 1095 273d bcc4 9a3d
000001e0: f9b3 37bd 38c6 55bd ffa3 cdbc 9127 09bc
000001f0: 8f2e 9d3d 04b6 abbc ab06 f1bc 3479 7d3d
00000200: f924 123d 42d8 d0bd 08ef bcbd 15aa 07be
00000210: d28d 08be 5a6f 433c 96b7 18be cb77 fdbc
00000220: e1b4 0dbd 0012 04bc 66a8 61bd 18ca 0dbe
00000230: b37a 09be 60e0 7abd 88ab ffbd 9035 643c
00000240: f45e c93c 5924 88bd a298 a6bd 2d1e ae3d
00000250: 7ac8 a33d 6ce5 8b3d 8cc2 0ebb c5a8 60bd
00000260: 4df9 31bd 91a5 a93d 7842 003d 9b12 59bb
00000270: 2d44 dc3d 05ba 193d 1347 193d e433 183e
00000280: 1b70 0c3e 19ad 053e 52e9 22bd 6e80 d33b
00000290: ee8d c6bd 2cc2 6abd 27bd 3c3d 8a77 a5bd
000002a0: d590 a4bd 0604 1fbd 71a6 583d 4eab 243d
000002b0: 2aeb 5cbd 87cf da3c 7615 c83d d9fc 023d
000002c0: 4a1f 4bbd 9994 7c3d c0c8 06bd 65d7 2fbd
000002d0: 96b8 673c e68a fe3d 9777 403d 7344 71bc
000002e0: 3f89 aa3d dc24 ba3d f50b f83d 960e 023e
000002f0: 33f2 a83d 7558 1abd e8eb 173d a427 c33c
00000300: 0f09 d3bc 790a dd3d ad3e aa3d 198a 8d3a
00000310: e85e 463b f0a9 503b 1ed0 493e f443 cb3c
00000320: 28ce ac3d cd2d 173e c51c 093e be0d a23d
00000330: ad91 2d3e 4fed 2d3e 6460 c93d 1fe0 84bd
00000340: d254 c8bd 0d39 a03d fe4c 5f3a f546 e53c
00000350: a763 893c 36e4 feb8 b0f5 a53c 02aa 43bd
00000360: 0f78 ea3b aabb 2c3d daa7 273e 3319 103e
00000370: c78a cd3d a552 613d 6401 e03d 64d7 57b9
00000380: e9f5 0a3e ee42 e83d 94d8 643c 8876 a93c
00000390: 77d2 eb3c 2733 803d 1e59 933c c236 f13d
000003a0: f3d8 a13d be5b 9a3d f7f8 2e3d 6458 0e3e
000003b0: 0d72 c93c 235f ac3d 4edb 203e 8751 af3d
000003c0: 668a 353d 0d45 a83c cd89 423c 2bb0 203e
000003d0: 2209 bf3d 8fb0 453e c78f 713e 9702 d13d
000003e0: c5d9 323d b048 e03d 7918 1f3e 93df e23d
000003f0: fa3b aa3d 037a 5b3e 1324 253e fdf7 223e
0.05845009 -0.039898828 -0.009833747 0.023038754 0.07705034 -0.015497234 0.04644336 -0.057091728
0.0538613 -0.064580165 -0.11847852 -0.020181546 -0.031372145 -0.060659256 -0.04916115 -0.1344819
-0.13834348 -0.019796124 0.10807426 0.08209158 0.04156108 0.08514807 0.06754643 0.005560314
-0.029545298 0.04716931 0.04806945 0.016730728 -0.04325051 0.05265713 -0.029036056 -0.030497646
0.01811554 -0.03796968 -0.010080162 0.027838934 -0.018111298 -0.071120955 -0.061469473 -0.010944621
-0.06937352 0.0045479755 -0.034027737 0.02879351 -0.097511694 -0.07720055 0.01271619 -0.040864598
-0.06267893 -0.079252005 -0.07263254 0.06101875 0.06400776 -0.08431251 -0.16501945 -0.10115871
-0.07565161 -0.17309557 -0.17431669 -0.08095131 -0.1721472 -0.15569526 -0.06737014 0.10846531
0.04520455 0.09685461 0.106883846 0.04588901 0.106421314 0.0985928 0.06898481 -0.00041079085
-0.067283355 -0.09835665 0.011770689 0.007673427 0.033660896 -0.00924002 -0.021885231 0.00017758104
8.581424e-05 -0.035007875 -0.05362092 0.0061532278 0.001043097 -0.0238383 -0.071424425 -0.13607617
-0.105251305 -0.056245886 -0.014088431 -0.008370043 0.018836401 -0.18234485 -0.18683764 -0.12538788
-0.23552051 -0.1324055 -0.1907344 -0.14660098 -0.09609734 -0.18436506 -0.14899059 -0.12223168
-0.10159027 -0.099962786 -0.17825994 -0.19656566 -0.05868518 -0.062335428 -0.16718517 -0.19650927
-0.098570816 -0.19241743 -0.1463184 -0.14415967 -0.13000971 -0.02428412 0.04091364 0.07557055
-0.04484937 -0.05219099 -0.025102613 -0.00837125 0.07674896 -0.020960815 -0.029422125 0.061883166
0.03567979 -0.10197498 -0.09225279 -0.13248475 -0.1333535 0.011928404 -0.14913782 -0.03094091
-0.034596328 -0.008060932 -0.055092238 -0.13846624 -0.13425712 -0.061249137 -0.12483889 0.013928786
0.02458141 -0.06647558 -0.08134581 0.08501849 0.07997222 0.06830868 -0.002178344 -0.05484845
-0.043450642 0.082835324 0.03131339 -0.0033122662 0.10755191 0.037530918 0.037421297 0.14863545
0.1371464 0.13054313 -0.039773293 0.006454519 -0.0969504 -0.057314083 0.046078827 -0.08079441
-0.08035437 -0.038822196 0.052893106 0.04020243 -0.053935207 0.026710285 0.09769718 0.031979416
-0.049590386 0.06166515 -0.032906294 -0.042930026 0.01414313 0.124288365 0.04698905 -0.014725792
0.08326959 0.090890616 0.121116556 0.12700877 0.08249321 -0.037682015 0.037090212 0.023822613
-0.025761155 0.10793013 0.08312736 0.0010798603 0.003026897 0.0031839572 0.19708297 0.024812676
0.08437759 0.14763565 0.13389881 0.07912777 0.16950102 0.16985057 0.09832838 -0.0648806
-0.09781803 0.078233816 0.00085182476 0.027987937 0.01677115 -0.000121541714 0.020258754 -0.047769554
0.0071554254 0.042171158 0.16372624 0.14072113 0.10036235 0.055010457 0.10937765 -0.00020584237
0.1357037 0.11340891 0.013967652 0.020686403 0.02878688 0.062597565 0.01798683 0.11778022
0.07902708 0.0753703 0.0427179 0.13900906 0.024590516 0.084165834 0.15708658 0.08560472
0.04432144 0.020540738 0.011873675 0.15692203 0.09327914 0.19305633 0.23590003 0.10205572
0.043664712 0.10951364 0.1553668 0.110778 0.08312221 0.21433263 0.16127042 0.15914913

encoder.3.bias f4 [32]
00000000: 182b 1ebc b6d0 a63d 6021 9c3d 8e07 26bd
00000010: af9c 453d 8d82 843d 91c5 f73b 3b16 e5bd
00000020: e4a1 e9bc 65a0 37bd 4f6a 4f3d dc8f 8abd
00000030: 4f64 a6bc 145e 99bd 2350 cb3d 495a 33bd
00000040: e3d6 4cbd a44d 953a b521 77bc 16d1 b7bc
00000050: dc46 16ba 870d c03d 4936 ab3d baa8 6ebc
00000060: e5ae 6bbd 69ef 8b3c 7c8d 58bd 3c5e b7bc
00000070: 0fa1 50bd 2dc7 0a3d 493b a13d e9ad 0b3b
-0.009653829 0.08145277 0.07623553 -0.04053455 0.04824513 0.06470213 0.0075613935 -0.11185881
-0.028519578 -0.0448307 0.050638493 -0.0676572 -0.020311503 -0.07488647 0.09927394 -0.043787275
-0.05000962 0.0011390937 -0.01508372 -0.022438567 -0.0005732605 0.0937758 0.083599634 -0.014566595
-0.05753984 0.017081933 -0.052869305 -0.022383802 -0.050934847 0.033881355 0.07872636 0.0021313375

encoder.6.weight f4 [64, 32, 3, 3]
00000000: be66 ff3b e0e9 c63d c95e 563d a346 4b3c
00000010: 69c5 b63d 9471 783d 8812 553d 69b4 973d
00000020: f149 a53d de40 643b 5c84 b4bc 6341 583b
00000030: 127f 7ebd 699c 1c3c ffb1 84bd 4c9d a3bd
00000040: dffe 28bd 0f69 b3bc 2e52 a63d b286 803c
00000050: 47b1 843c 01c2 003d b95a 2e3d e66d 783c
00000060: 4a6b 973d b328 a4bb 70d6 943d eb54 fabd
00000070: e5f4 24bd 989d bdbd 9f79 e2bd b668 8ebc
00000080: 2d33 82bd e686 79bd e6b0 aebd d895 73bd
00000090: 2669 2f3c 8919 1bbd 3a8f 2bbc ecce 6abd
000000a0: 1367 eebc fd6d 62bd 85d8 403c 85da cabc
000000b0: e47e 64bd dbda 49bc 39be 0fbd 6b40 9bbd
000000c0: 0894 91bd abf0 acbc 19e5 78bd 04ec b8bd
000000d0: f055 8dba 059c 72bc d2d8 eebc 191a 5dbd
000000e0: e185 53bd 2ddc 13bc 05be cdbb e459 43bc
000000f0: 1fc1 9fba 132a 9fbd f467 99bd 1a3a 8dbc
00000100: c8ad 3b3d cc59 c6bc de39 663d e1f8 073d
00000110: 2ccc 9abc aea1 98bc 18d9 313d f70c 8e3d
00000120: 9e0a 893d 38f7 8c3c abde 9e3d 2bc5 ef3c
00000130: a579 983d f296 573d f433 d63c a96b 613d
00000140: f2fa 8ebc ff9f 983c ff90 febb d1df d83c
00000150: aee2 cb3a 0e87 14bc 5c31 8d3b 4590 bc3d
00000160: d0ef 7d3d 7f7f d63c 0ef7 bfbd a096 e1bd
00000170: a83e a6bd 5bc0 62bd 09ea e8bd 66e6 3fbc
00000180: 6dd0 b6bd 7163 d4bd b613 acbd ad5e 5bbd
00000190: f4cc e1bd 41f7 dcbd 656f 08be 552a 72bd
000001a0: 62fb 4bbd 8ddd b5bd b9ad 0cbe 46bb 13be
000001b0: ea8a 03bd 338d efbc a92b d9bd d20e 9ebd
000001c0: 06ee 43bd 8907 e5bb b94c b5bd a36d 67bd
000001d0: 3cdf febd 6fc0 92bd 0820 5ebd dced ecbd
000001e0: 1ee8 59bd 1c41 febd 4ed5 abbd 67f5 7bbd
000001f0: 112c cabd 54af acbd 9a53 4cbb 8a36 753d
00000200: 05ab a63d e94a 883d 914f c83c 96ef ad3d
00000210: 43df f73c c92c f3bc 1e3d 4f3d c2f1 c0bd
00000220: 6650 f5bc e96a 53bd 39d1 c8bd e246 02bd
00000230: 6d96 78bc 25fc 21bd bd13 3ebd cedf f0bc
00000240: f409 abbd 6d39 ccbd b51f 61bd 62bc bfbd
00000250: ba90 04bd 5433 44bd 2662 00be 32e9 05be
00000260: 5125 a3bd 5417 cfbd 33cc 30bd 0d0c 98bc
00000270: bf41 c2bc 4236 90bb 496d b7bd a703 35bc
00000280: 15c7 48bc c9ab c0bd b178 443d 2751 99bc
00000290: f5dd de3c e8a2 cd3b c1a6 8b3d 074d 9b3c
000002a0: 2c02 cc3c c44e 8b3d f721 003d 88ce bdbd
000002b0: 6651 76bd 1f03 a6bd fc55 18bc 387f 89bd
000002c0: 8f6b 93bd a581 a8bd 8d7b 32bd eb2a d3bd
000002d0: 5a0f 06be 06f4 e5bd 06f5 adbd dcc4 49bd
000002e0: 1db2 abbc 2a3b 04be d288 acbd cf4b 09bd
000002f0: 6655 7dbd 47e7 45bd 5c26 92bd 1306 9fbd
00000300: 4f0b fcbc 4a10 7bbb 73e8 cabd 4c56 1cbd
00000310: e35a b5bd 3b96 eabc 843b 43bd 1592 92bd
00000320: 1525 f4bc 0895 98bd 81dd 99bd da04 6abd
00000330: 99f7 54bc cb52 93bd b534 ebbd a25a 9b3d
00000340: 537c 7b3d 4c32 513d c5a3 b23d 6388 ad3d
00000350: 969a 933c 1588 c03d e12c 9fbc e658 4d3c
00000360: 7a73 d63b e5cf 53bd e8bf 583d ece3 b33c
00000370: 5f68 31bd d739 523d 2e9a c33c d253 8bbc
00000380: 7527 b73c 28d3 20bd 497f 65bd f3ad 6dbd
00000390: 82e7 e7bd 58cf e2bd 8b24 edbd 6b34 7cbd
000003a0: 75a3 babd 2ee8 bfbd 30e4 5bbd 2038 cabd
000003b0: 72f7 9cbd f0ca b4bd 2a50 5ebd 252d c6bd
000003c0: c833 80bd b69e 1cbd 94f7 17bd be62 01bd
000003d0: 775f f0bc 86e4 b3bc ad62 00bd ecb2 b1bc
000003e0: 130e 8abd 6309 04bc 1be5 d3bd 261d ac3b
000003f0: d9de eebc 5a18 433c 2b3c 613c 28b3 fb3c
0.0077942302 0.09712577 0.052336488 0.012406978 0.08924372 0.06065519 0.052019626 0.074074574
0.08070744 0.0034828703 -0.02203577 0.0032997958 -0.062132902 0.009558775 -0.064792626 -0.079889864
-0.04125869 -0.021900682 0.08121143 0.015689228 0.016197814 0.031435017 0.04256699 0.015162921
0.07393511 -0.0050097345 0.07267463 -0.12223228 -0.040272612 -0.09258574 -0.11058354 -0.017383914
-0.06357417 -0.060919665 -0.085298344 -0.059469074 0.010706222 -0.03786615 -0.01047116 -0.057326242
-0.029101884 -0.055280674 0.011770372 -0.024762401 -0.055785075 -0.012320246 -0.03509352 -0.07580646
-0.07108313 -0.021110853 -0.06076536 -0.090293914 -0.0010783058 -0.014807706 -0.029156122 -0.053979967
-0.05164135 -0.009024662 -0.0062787556 -0.011923287 -0.0012188292 -0.07771697 -0.074905306 -0.017239619
0.045820028 -0.02421274 0.05620753 0.033196334 -0.018896185 -0.018631782 0.043419927 0.069360666
0.06691478 0.017207727 0.07757314 0.029268822 0.07445077 0.052634187 0.02614782 0.055034313
-0.017453644 0.01863098 -0.0077687497 0.026473911 0.0015555227 -0.009065403 0.0043088626 0.09207205
0.06199628 0.026183842 -0.09373294 -0.110150576 -0.081174195 -0.055359226 -0.11372764 -0.011712646
-0.08926473 -0.103705294 -0.08402197 -0.053557087 -0.1102542 -0.107893474 -0.13323744 -0.059122402
-0.049800284 -0.08880148 -0.13738145 -0.14426908 -0.0321149 -0.029242134 -0.10604031 -0.077176705
-0.04783442 -0.0069894237 -0.08852524 -0.056501042 -0.12444922 -0.0716561 -0.054229766 -0.115688056
-0.05319988 -0.124147624 -0.08390294 -0.06151333 -0.09871686 -0.08431879 -0.003117776 0.059866466
0.08138088 0.06654913 0.024452003 0.08492963 0.030257827 -0.029684441 0.050595395 -0.09421112
-0.029945564 -0.05161563 -0.09805531 -0.03180588 -0.015172583 -0.039547104 -0.046405543 -0.029403593
-0.08351508 -0.099718906 -0.05496188 -0.09362103 -0.032364585 -0.047900513 -0.1253744 -0.13077238
-0.07966102 -0.10111871 -0.04316349 -0.018560434 -0.02371299 -0.0044009993 -0.08956391 -0.011048234
-0.012254496 -0.094077654 0.047966663 -0.018715454 0.027205447 0.0062755235 0.06818915 0.018957628
0.02490338 0.06802133 0.03128239 -0.09267908 -0.06013622 -0.08106064 -0.009297844 -0.06713718
-0.071982495 -0.08227853 -0.04357486 -0.1031092 -0.13091794 -0.112281844 -0.08494 -0.049260005
-0.020958954 -0.12913194 -0.08424534 -0.033519562 -0.06184902 -0.048316266 -0.07136223 -0.077648304
-0.030767111 -0.003830927 -0.099076174 -0.038168237 -0.08855226 -0.028636089 -0.04766418 -0.07156769
-0.029802838 -0.074503005 -0.07512952 -0.057133533 -0.012998485 -0.07193526 -0.114846624 0.07585646
0.06139786 0.051073357 0.08722643 0.08473279 0.018018048 0.094009556 -0.01943058 0.012533402
0.0065445276 -0.051711936 0.05291739 0.021959268 -0.043312427 0.05132469 0.02387723 -0.017007742
0.022357682 -0.039263874 -0.05602959 -0.05802722 -0.113234535 -0.11074704 -0.11579236 -0.061573427
-0.09113208 -0.09370457 -0.053684413 -0.09873986 -0.07664384 -0.0882777 -0.05427567 -0.096765794
-0.062598765 -0.038237296 -0.037101343 -0.03158831 -0.029342396 -0.021959554 -0.031344105 -0.021691762
-0.06740966 -0.008058879 -0.10346433 0.005252498 -0.029158996 0.011907661 0.013747255 0.030725077

encoder.6.bias f4 [64]
00000000: 7a72 90bc 9e7f 2d3d a111 59bd 824f ed3b
00000010: 908a 8dbc 5b95 b13c 1ec2 4ebd b321 073d
00000020: 265e 2dbd 6cf9 25bc 63b0 9b3d 0af3 643c
00000030: bc02 883b 1607 3c3d 65df 363d dcef 3f3d
00000040: 9e00 433d 298b 8d3d 039f 393c 61ff 953d
00000050: dd32 bcbb 9dc5 413c cf88 4f3c dd80 9e3c
00000060: 2e0d 2e3a bed3 dcba 8ac5 19ba a0c4 2b3d
00000070: 7dc4 b9bc 7939 153c 630b 153d a1a1 6a3c
00000080: 118e 0fbd 310b 87bc 4bae 7c3d 1210 ad3c
00000090: 4df6 483c 93e5 b53d 2b69 dd3c 2e49 573d
000000a0: 3aae 713d b2a2 44bd 8820 34bd 406e af3c
000000b0: 6310 7cbd a458 243d b8ce 2f3c d255 063d
000000c0: 2a67 903d 0a47 3e3d da22 f7bb 22ce 31bd
000000d0: 4590 153b 096e e43c d411 6c3c b53b 213c
000000e0: 5c75 8fbd e2d3 623d 881d 32bd 4600 653d
000000f0: ced8 9a3d 00cc 213c fbeb 813d 32da 033d
-0.017632712 0.042358033 -0.052995328 0.007242144 -0.017277986 0.021677664 -0.050478093 0.032991122
-0.042326115 -0.010130268 0.076020025 0.013973961 0.0041507166 0.045905195 0.04464664 0.046859607
0.04760801 0.06911308 0.011329415 0.073241 -0.005743368 0.0118269 0.012666895 0.019348556
0.0006639537 -0.0016847772 -0.00058659224 0.041935563 -0.0226767 0.009107941 0.036387812 0.014320762
-0.035047594 -0.016484829 0.061689656 0.021125827 0.012265754 0.088816784 0.027027687 0.052560024
0.059004046 -0.04800672 -0.043976337 0.021414876 -0.061539065 0.040123597 0.010730438 0.03279669
0.07050927 0.046454467 -0.0075419964 -0.043409474 0.0022821587 0.0278845 0.014408547 0.009840895
-0.070048064 0.05537785 -0.043485194 0.055908464 0.075608835 0.009875298 0.06343838 0.03219051

fc.2.weight f4 [2, 64]
00000000: 36a3 0c3e c9c7 033d 20be ca3d 3a4a e83d
00000010: 8cf9 d2bd 0cda 0bbe b6a6 dd3d 8418 133e
00000020: ac38 5c3d 8fd4 20be 230f 123e a36b 25be
00000030: a0d7 c53d d225 0a3d ec48 0a3e c93c 943d
00000040: d728 3a3e 04a4 453e f30b c03d 29a8 e03d
00000050: c67e ec3d c3e0 363e 1b6b 0dbd 236e a5bd
00000060: 4f3e f53d ef0d c43d d7d1 ac3c b140 f3bd
00000070: f482 c8bd 82f3 77bd 330b 03be f01b 4e3e
00000080: 5142 9a3c 8983 f93c ea6e 08be 6fdb 41be
00000090: c5f4 04be 1327 153e ee3d 1bbe 91de a83d
000000a0: b169 113e 7d4a 143d a994 493d aa4f 1ebe
000000b0: 5342 44bd 747c 803d 79a1 203e f048 05bd
000000c0: 8db0 75bd bbfb e13d 3eb2 373e e167 95bc
000000d0: 4c59 7f3d 04bb 403e 3489 0cbe 2736 36be
000000e0: e62c c4bd 7f9a 1dbe c847 2e3d 023f 303e
000000f0: 119c fb3c 0168 23be b3c4 f63d 376d 3a3e
00000100: e6ad 40be 6a51 35be 0dec 8abc f189 c5bd
00000110: 04f4 093e 5ce1 d13d 882c 56bd a280 1cbd
00000120: 91e3 bcbd f9af 9f3c eb68 27be 0100 193e
00000130: 586a 00be cd28 10be 8673 69bd 6189 fcbd
00000140: eb70 b0bd 8e39 2fbd 1c7a 3cbe bdf5 09be
00000150: d508 38be 10d7 92bd 24bc d7bd 5f16 e53d
00000160: 5889 d1bc fe6f 3c3d fe4f 3c3e 338e d43d
00000170: 7f31 833d 1287 223e c0ce a23d f1d7 e6bc
00000180: f0f5 1f3e 3adb 7abc b788 043e a0ec c83b
00000190: 346f b33d c65d 08be dd47 ff3c 9dea 2fbe
000001a0: 53f5 9abd 1243 b7bd 1bb3 0a3c 4361 253b
000001b0: f77f 373e 31c8 12be e7f3 b5bd 4c63 1f3e
000001c0: 321a 453e c310 3b3d 440c a5bd 4803 c03d
000001d0: b345 07be 2331 a5bd b32f 713d 1d3d 143e
000001e0: 5eea bf3d 67d1 fc3c b287 e3bd 69cf 36be
000001f0: a9ee 59be f72e 053e 080b 80bd 4d38 0ebd
0.13734135 0.03217295 0.09899545 0.113422826 -0.103015035 -0.13657397 0.10822813 0.1436482
0.053764984 -0.15706085 0.14263587 -0.16154341 0.09660268 0.033727475 0.1350438 0.07238156
0.18179642 0.19300848 0.09377279 0.10969574 0.115476176 0.17859177 -0.03452597 -0.080776475
0.11974775 0.0957297 0.021096153 -0.11877573 -0.09790602 -0.06053496 -0.12797241 0.20127845
0.01883045 0.030458229 -0.1332356 -0.18931364 -0.12983997 0.14565687 -0.15160343 0.08245576
0.14200474 0.03620385 0.04921404 -0.15460077 -0.047914814 0.062737375 0.15686597 -0.03254026
-0.059982825 0.11034342 0.17939088 -0.01823801 0.06234102 0.18821341 -0.13724214 -0.17794095
-0.09578876 -0.15390967 0.042548925 0.17211536 0.030714067 -0.15957643 0.12049236 0.18205725
-0.18816337 -0.17706838 -0.01695826 -0.09645451 0.13471991 0.10248062 -0.052288562 -0.03820861
-0.09223092 0.01949309 -0.16348617 0.14941408 -0.12540567 -0.14078064 -0.056994937 -0.123308904
-0.086152874 -0.042779498 -0.18405956 -0.13472648 -0.17972119 -0.07169926 -0.10533932 0.111859076
-0.025578186 0.04600524 0.1838989 0.10378685 0.06405925 0.15871838 0.07949591 -0.02817914
0.15621161 -0.015311057 0.12942778 0.0061317235 0.08761445 -0.13317022 0.031162197 -0.17179342
-0.07566323 -0.089483395 0.008465554 0.0025234974 0.17919908 -0.1433418 -0.08884411 0.15565223
0.19248274 0.045670282 -0.0805898 0.09375626 -0.13210182 -0.08066013 0.05888338 0.14476438
0.09370874 0.03086157 -0.11109866 -0.17852558 -0.21282448 0.13006197 -0.06252104 -0.03472166

fc.2.bias f4 [2]
00000000: 2be9 d43d 5e05 e4bd
0.10396036 -0.11133836
