notebooks/pierre/mtl_cnn.pt (torch, 783948 bytes, 26 tensors)

shared.0.weight f4 [32, 3, 3, 3]
0	0x3d8095c1	0.06278563
1	0xbe373e2a	-0.17894807
2	0xbc46b888	-0.012128957
3	0x3e80929f	0.25111863
4	0x3df4dcf1	0.11956204
5	0x3e08b489	0.13350119
6	0xbdbc51a0	-0.09195256
7	0x3e1c8214	0.15283996
8	0xbe3e1526	-0.18562755
9	0x3df07284	0.11740592
10	0xbe199ccd	-0.15001221
11	0x3e299ef4	0.16564542
12	0x3e14e47b	0.14540283
13	0x3d5ca708	0.05387023
14	0xbdede75c	-0.11616394
15	0xbd60de38	-0.054899424
16	0x3e003c2a	0.12522951
17	0xbe19d4de	-0.15022609
18	0x3dec9a76	0.115528986
19	0xbd54a052	-0.051910706
20	0xbd8c8ed4	-0.0686318
21	0x3e1c60a0	0.15271235
22	0x3c3992c5	0.0113264965
23	0xbcae2c58	-0.02126138
24	0x3d996fa8	0.07492
25	0xbe3c5e27	-0.18395291
26	0xbda07d5e	-0.07836412
27	0x3c2a31b1	0.010387824
28	0x3e227300	0.15864182
29	0x3e2b91e4	0.16754872
30	0x3dd13205	0.102146186
31	0xbe06edc3	-0.13176636
32	0xbcf36d30	-0.02971515
33	0x3cf1aafe	0.02950048
34	0x3caae26a	0.020859916
35	0xbd2204c0	-0.03955531
36	0x3dab2a94	0.083577305
37	0xbe804571	-0.2505298
38	0xbdec4c3e	-0.115379795
39	0xbe82efe5	-0.2557365
40	0x3cf100ee	0.029419389
41	0xbdc1a2e6	-0.094548985
42	0x3d5e9ff6	0.05435177
43	0xbe992c79	-0.29916742
44	0xbd4ec13a	-0.050477244
45	0x3e181aaf	0.14853929
46	0x3dea4aeb	0.11440071
47	0x3e1c8824	0.15286309
48	0x3e0f4e5c	0.13994735
49	0x3d0bd4cd	0.03413849
50	0xbe2d4d5f	-0.16924046
51	0x3d1f3e34	0.03887768
52	0x3c8f4c74	0.01749251
53	0xbe49cb52	-0.19706467
54	0xbe05131f	-0.12995575
55	0xbdb23cd1	-0.08703006
56	0xbe222fc0	-0.15838528
57	0x3c3bd909	0.011465319
58	0x3da0061f	0.078136675
59	0xbde3c0c3	-0.11120751
60	0x3e5fb56c	0.2184655
61	0xbd9e0104	-0.077150375
62	0x3e6b3f12	0.22973278
63	0xbe37d01c	-0.17950481
64	0xbe1b452f	-0.1516311
65	0xbe4b7cee	-0.19871876
66	0x3e3ee092	0.18640354
67	0xbe375bab	-0.17906062
68	0x3d078805	0.033088703
69	0x3e3f58de	0.18686244
70	0x3db2b85b	0.08726569
71	0x3e3b02c8	0.1826278
72	0x3dc0a089	0.0940562
73	0xbe3d8e91	-0.18511416
74	0x3e265583	0.16243558
75	0xbc949cec	-0.018141232
76	0xbdfba0a0	-0.12286496
77	0x3db4bfb9	0.08825631
78	0xbd0c51c6	-0.034257673
79	0xbd156e6a	-0.036482252
80	0x3d2769f9	0.040872548
81	0xbd8de2c2	-0.06928016
82	0xbd75f9f0	-0.060052812
83	0xbe66a82d	-0.22525091
84	0xbda431e5	-0.08017329
85	0xbd8a7fd9	-0.06762666
86	0xbe4233a2	-0.18965009
87	0xbdc32968	-0.09529382
88	0xbe5bdfc4	-0.21472079
89	0xbdc8a416	-0.09796922
90	0x3d00590b	0.031334918
91	0x3e30f343	0.17280297
92	0x3e181607	0.14852153
93	0xbdb8ad94	-0.090174824
94	0x3e4c76ce	0.19967195
95	0xbcefa794	-0.029254712
96	0x3d01976e	0.031638555
97	0x3e3509ad	0.17679472
98	0x3dcf9138	0.1013512
99	0xbc959945	-0.018261561
100	0xbdd6a646	-0.10480933
101	0x3e0107b1	0.1260059
102	0xbd32d6ab	-0.043661755
103	0xbd420fce	-0.047378354
104	0x3e2354c5	0.15950306
105	0x3dfc0e92	0.123074666
106	0xbcdea7da	-0.027179647
107	0xbdb22b3e	-0.08699654
108	0x3c0b26a4	0.008493099
109	0x3d709999	0.058740232
110	0xbd628aa9	-0.055308018
111	0x3d9d9111	0.07693685
112	0x3d8193a6	0.0632699
113	0xbe4e13af	-0.20124696
114	0xbc9995ab	-0.018748125
115	0x3d926c5d	0.07149575
116	0xbe59e8d5	-0.21280225
117	0x3e639ad0	0.22227025
118	0xbd763a1e	-0.06011402
119	0xbe032047	-0.12805282
120	0x3e146803	0.14492802
121	0xbe3af28d	-0.18256588
122	0x3d3f84df	0.046757575
123	0xbe21f97d	-0.15817828
124	0x3aa5f470	0.0012661349
125	0x3e30ec7e	0.17277715
126	0x3e52a50b	0.20570771
127	0x3e469461	0.1939254
128	0x3d956a40	0.07295656
129	0xbdbdcee1	-0.09267975
130	0xbe349845	-0.17636211
131	0x3dfae206	0.12250142
132	0xbc9fe030	-0.01951608
133	0xbd10583d	-0.0352404
134	0xbe1a95dc	-0.1509623
135	0xbe1c3b5f	-0.15257023
136	0xbe42e9d7	-0.19034515
137	0xbdde88f4	-0.108659655
138	0xbe45b110	-0.19305825
139	0x3d7c33d0	0.06157285
140	0xbe71dae6	-0.2361866
141	0xbe7d3316	-0.24726519
142	0x3d812318	0.06305522
143	0xbe45f3a8	-0.19331229
144	0x3e50e62a	0.204003
145	0x3d290564	0.041264907
146	0xbdec2fcc	-0.11532554
147	0xbd8b1094	-0.067902714
148	0xbd13c8a4	-0.036080018
149	0x3e0064a9	0.12538399
150	0xbddd188a	-0.10795696
151	0xbda809aa	-0.08204968
152	0x3da65bf6	0.08123009
153	0xbdf56b81	-0.11983395
154	0xbddb58c4	-0.1071029
155	0x3db2ebda	0.08736391
156	0x3d22efc0	0.039779425
157	0x3d909376	0.07059376
158	0xbd3e401b	-0.046447854
159	0x3db6b6ff	0.089216225
160	0x3c9f4682	0.0194428
161	0xbd82cfbb	-0.06387278
162	0xbd913056	-0.070892975
163	0x3d1ec081	0.038757805
164	0x3da5d091	0.080964215
165	0xbe30af22	-0.17254308
166	0xbdab4a9a	-0.083638385
167	0xbe7048d5	-0.23465283
168	0x3e42ffda	0.19042912
169	0x3e2b6863	0.16739039
170	0xbe28d9be	-0.16489312
171	0x3cd82d5f	0.026388822
172	0x3e0e6125	0.13904245
173	0x3c8f11da	0.017464567
174	0xbdb957a3	-0.090499185
175	0xbddc14e3	-0.10746171
176	0x3d26519c	0.040605173
177	0xbd8522d0	-0.065007806
178	0x3bb1cf27	0.005426306
179	0x3dad8fd1	0.084746964
180	0x3e202c44	0.15641886
181	0xbe3e9e28	-0.1861502
182	0xbe3e6ac1	-0.18595411
183	0xbe26edad	-0.16301604
184	0x3c4da10c	0.012550604
185	0x3de4462e	0.11146198
186	0x3e2888c4	0.16458422
187	0x3e22eb85	0.15910156
188	0xbd16bd04	-0.036801353
189	0x3e176cc4	0.14787585
190	0x3e24823e	0.16065308
191	0xbd0955e4	-0.033529177
192	0x3dc62167	0.0967434
193	0xbd0505f5	-0.032476384
194	0xbe7a22a8	-0.24427283
195	0x3e193d0a	0.14964691
196	0xbe2df1b3	-0.16986732
197	0xbe47414e	-0.19458506
198	0xbd6a1433	-0.05714817
199	0x3e00f3c4	0.12592989
200	0xbe42bd2a	-0.19017473
201	0x3b138d09	0.0022514483
202	0x3dc040ce	0.093873605
203	0xbc5116c2	-0.012761774
204	0x3d699528	0.057027012
205	0x3e17d11d	0.14825864
206	0x3cdf9325	0.027291844
207	0x3dcd871c	0.10035536
208	0xbc20c0a5	-0.009811555
209	0xbd532a99	-0.051554296
210	0xbe34cb10	-0.17655587
211	0x3daa7b0e	0.08324252
212	0x3e070a90	0.13187623
213	0x3df56720	0.1198256
214	0xbde3eaf1	-0.11128796
215	0xbd52687b	-0.05136917
216	0xbe497e88	-0.19677174
217	0x3bd07d31	0.00636258
218	0x3d06ea61	0.032938365
219	0x3e1243d1	0.14283682
220	0xbd139954	-0.036034897
221	0x3e263d64	0.16234356
222	0x3dba5986	0.090991065
223	0x3e46f3ee	0.1942899
224	0xbdc7491c	-0.097307414
225	0xbdccf310	-0.10007298
226	0xbdd47ce9	-0.10375387
227	0x3c06a82a	0.008218804
228	0x3d029210	0.031877577
229	0xbdeab139	-0.11459584
230	0xbcbab319	-0.022790479
231	0x3e12f11d	0.1434979
232	0xbdbcaf13	-0.0921308
233	0x3dab8676	0.08375256
234	0x3d78f210	0.060777724
235	0xbdbfb517	-0.09360712
236	0xbe5d4a89	-0.21610464
237	0xbda89d79	-0.082331605
238	0xbdd7cd6e	-0.105372295
239	0x3e1705af	0.14748262
240	0xbda86081	-0.08221532
241	0x3d393428	0.045215756
242	0x3e08014b	0.13281743
243	0xbe52369e	-0.20528647
244	0x3e356537	0.17714392
245	0x3e6298ac	0.22128552
246	0x3d9acde2	0.075588
247	0xbde27f15	-0.11059395
248	0x3d84b6a2	0.06480147
249	0xbda4d11b	-0.08047696
250	0x3c2a2f7f	0.0103873005
251	0x3e2cd377	0.16877542
252	0xbe07e77b	-0.13271897
253	0x3e5a21e4	0.21301991
254	0x3e3142b8	0.17310607
255	0xbe2ba60a	-0.16762558

shared.0.bias f4 [32]
0	0x3e217acc	0.157695
1	0xbe48724f	-0.19574855
2	0xbe1fb559	-0.15596522
3	0xbd3d3c9b	-0.046200376
4	0xbe319c7c	-0.1734485
5	0x3e58e511	0.21181132
6	0x3aa61781	0.00126718
7	0xbe1fe136	-0.15613255
8	0xbd26412e	-0.040589504
9	0x3ae209c0	0.0017245337
10	0xbe21c489	-0.15797628
11	0x3de44d2f	0.11147534
12	0x3cf3a1ee	0.0297403
13	0xbd00b535	-0.031422812
14	0xbd6de365	-0.05807819
15	0x3db298d0	0.08720553
16	0xbdc39621	-0.09550119
17	0xbdf8a9e1	-0.12141777
18	0x3cec4616	0.028842013
19	0x3d74d2d5	0.059771378
20	0x3e1b483a	0.15164271
21	0xbdf5a87f	-0.11995029
22	0xbde144a7	-0.109994225
23	0x3ddea933	0.10872116
24	0xbdd42efc	-0.10360524
25	0xbdd45e08	-0.103694975
26	0x3d83c225	0.064335145
27	0x3de39fb3	0.111144446
28	0xbe0c7339	-0.13715829
29	0x3d7035a6	0.058644913
30	0xbcf9bf53	-0.030486738
31	0x3e31b294	0.17353278

shared.1.weight f4 [32]
0	0x3f81b953	1.0134681
1	0x3f6d83ed	0.9277943
2	0x3f819368	1.012311
3	0x3f7bbd6d	0.98335916
4	0x3f9baa4e	1.2161348
5	0x3f797df6	0.97457826
6	0x3f7fa9a9	0.99868256
7	0x3f8ed34d	1.1158234
8	0x3f758159	0.95900494
9	0x3f828cb6	1.0199192
10	0x3f827951	1.0193273
11	0x3f58ad23	0.84639186
12	0x3f6f30e0	0.9343395
13	0x3f69594c	0.9115188
14	0x3f7d9175	0.99050075
15	0x3f81da51	1.014475
16	0x3f8b003c	1.0859447
17	0x3f8017df	1.0007285
18	0x3f4d6c68	0.8024354
19	0x3f8ed4d1	1.1158696
20	0x3f73c228	0.95218134
21	0x3f78e428	0.9722314
22	0x3f6a8171	0.9160376
23	0x3f928c03	1.1448978
24	0x3f8a500a	1.0805676
25	0x3f83e49e	1.0304143
26	0x3f8ba997	1.091113
27	0x3f89fe21	1.0780679
28	0x3f554e91	0.8332301
29	0x3f9660dc	1.1748309
30	0x3f844c70	1.0335827
31	0x3f5f7edb	0.8730294

shared.1.bias f4 [32]
0	0x3d1103db	0.035404067
1	0xbd44d65f	-0.048056003
2	0xbcb00b8d	-0.021489883
3	0xbe0ae2c1	-0.13563062
4	0x3e22fb45	0.15916164
5	0xbdf4c884	-0.11952308
6	0xbc9d57f1	-0.019206973
7	0xbcfe7e5f	-0.031066118
8	0x3d5dbb83	0.054133903
9	0x3cedd146	0.029030453
10	0xbd979e28	-0.07403213
11	0xbe1c24b2	-0.15248373
12	0xbe1b4e11	-0.15166499
13	0xbe433222	-0.19062093
14	0x3c506e70	0.012721643
15	0xbe18c0ab	-0.14917247
16	0xbc728844	-0.014802996
17	0xbd98f31c	-0.074682444
18	0xbdcca6f8	-0.09992784
19	0xbc85885b	-0.01630037
20	0xbdf9bb31	-0.12193907
21	0xbe0b356d	-0.13594599
22	0xbe3248dc	-0.17410606
23	0x3c490ea9	0.012271562
24	0xbc800f05	-0.015632162
25	0xbc21abbf	-0.009867608
26	0x3c25db8e	0.010123147
27	0x3d9284fc	0.07154271
28	0xbe20c85c	-0.15701431
29	0x3d5a6698	0.053320497
30	0x3d52e2e4	0.05148591
31	0xbe095d38	-0.13414466

shared.1.running_mean f4 [32]
0	0x3c0bbc2b	0.008528749
1	0xbdbf2e2b	-0.09334978
2	0xbe0adc92	-0.13560703
3	0x3e3b7ec1	0.18310072
4	0xbe084699	-0.13308181
5	0x3f3c5970	0.7357397
6	0x3da6e550	0.08149207
7	0xbe39b798	-0.18136442
8	0xbd9c8c2c	-0.07643923
9	0xbe40b8fc	-0.18820566
10	0xbe14cccc	-0.14531249
11	0xbe4737b9	-0.1945485
12	0x3ebd8173	0.37012824
13	0xbdce672d	-0.10078273
14	0xbdc64a63	-0.09682157
15	0xbdcc9537	-0.09989398
16	0xbdbdc847	-0.092667155
17	0x3e4cca53	0.19999056
18	0xbe9a961e	-0.30192655
19	0x3d7e0f5e	0.062026374
20	0x3f107d9b	0.5644166
21	0x3df95a16	0.12175386
22	0x3da6ca7f	0.08144092
23	0x3dc580f0	0.096437335
24	0xbe172c17	-0.14762913
25	0xbd9a5f88	-0.075377524
26	0xbdfa27d0	-0.12214625
27	0xbcf91043	-0.030403262
28	0xbee6e25b	-0.4509457
29	0x3dbdc91b	0.092668734
30	0xbdf59a77	-0.119923525
31	0x3d9976c4	0.07493356

shared.1.running_var f4 [32]
0	0x3c93a150	0.018021256
1	0x3c1a17a8	0.009405054
2	0x3c6b9e66	0.014381027
3	0x3d0f18ac	0.03493564
4	0x3bea9a10	0.007159479
5	0x3e0e4d81	0.13896753
6	0x3be7ea98	0.0070775263
7	0x3bfa081c	0.0076303612
8	0x3bd39112	0.0064565027
9	0x3cd438eb	0.025906047
10	0x3c0da9c6	0.008646434
11	0x3d58e2c4	0.052950636
12	0x3d88eeef	0.06686198
13	0x3beebff6	0.007286067
14	0x3c3c389b	0.011488105
15	0x3c795848	0.015218802
16	0x3c4ecf57	0.012622676
17	0x3d5d9e5f	0.054106113
18	0x3d858fde	0.06521581
19	0x3c2fdc04	0.010733608
20	0x3dbf42c2	0.09338905
21	0x3d12f35c	0.035876617
22	0x3d078057	0.03308138
23	0x3c1a925d	0.00943431
24	0x3c062983	0.008188608
25	0x3c01780a	0.007902155
26	0x3c927090	0.01787594
27	0x3c8165b0	0.015795559
28	0x3d57768a	0.052603282
29	0x3c073550	0.008252457
30	0x3bdd7eb0	0.006759487
31	0x3c99c310	0.01876977

shared.4.weight f4 [64, 32, 3, 3]
0	0xbcd0bcef	-0.025480716
1	0xbca8bc30	-0.020597547
2	0xbbaeb9b0	-0.0053321943
3	0x3ce70f8f	0.028205661
4	0x3c11d465	0.008900736
5	0x3d83347e	0.064064965
6	0x3d567e1c	0.05236636
7	0x3b1d2005	0.0023975384
8	0x3dcfdde3	0.101497434
9	0x3d3e6a32	0.046487994
10	0x3c52163c	0.012822684
11	0x3d103bdc	0.035213336
12	0x3d7851d3	0.06062491
13	0xbcd5976a	-0.026073176
14	0x3d208669	0.039190684
15	0xbd7fee94	-0.062483385
16	0xbc9d3c79	-0.019193875
17	0xbd379d50	-0.04482776
18	0xbd2762f2	-0.040865846
19	0x3d31a92c	0.043374225
20	0x3bb836d7	0.005621772
21	0x3d707561	0.05870569
22	0xbd675b5c	-0.05648361
23	0x3c9af612	0.018916164
24	0xbc7e4827	-0.015520132
25	0x3c68af73	0.014201987
26	0xbcceb289	-0.025231617
27	0xbc1d74db	-0.00961038
28	0xbc911b2f	-0.017713157
29	0xbd83e99a	-0.0644104
30	0x3c77f6e5	0.015134548
31	0xbd73c0f8	-0.0595102
32	0xbd3f9e4a	-0.046781816
33	0xbd91990a	-0.07109268
34	0xbd780c83	-0.060558807
35	0x3cf4aea5	0.029868433
36	0xbd0009cc	-0.031259343
37	0xbd1aef6f	-0.037825998
38	0xbc9e6325	-0.019334385
39	0xbd2a5856	-0.04158815
40	0xbc9626fd	-0.018329138
41	0x3cc7657a	0.02434038
42	0xbd63bd0b	-0.055600207
43	0xbcaeaa38	-0.021321401
44	0xbc3476d2	-0.011014657
45	0xbd812a3a	-0.06306882
46	0x3cda0e0d	0.026618028
47	0xbcbada0c	-0.022809051
48	0xbd5f1ed2	-0.054472752
49	0x3c97131d	0.018441731
50	0xbd28f5e6	-0.041250132
51	0x3c01ce23	0.007922682
52	0xbcc96130	-0.024582475
53	0xbda05086	-0.078278586
54	0xbc22fa51	-0.009947375
55	0x3dc27828	0.09495574
56	0x3e1521d7	0.1456369
57	0xbc993729	-0.01870306
58	0xbd4955fb	-0.049154263
59	0x3daa2c7c	0.08309266
60	0xbd83280f	-0.06404125
61	0x3ce8c1e7	0.028412772
62	0x3d2801cb	0.041017335
63	0xbd05f84a	-0.03270749
64	0xbcf199ff	-0.029492376
65	0x3daeddbb	0.085383855
66	0x3cebb196	0.028771203
67	0x3d0a3764	0.03374423
68	0x3d821e3d	0.06353424
69	0x3d224150	0.039613068
70	0x3c5b4506	0.013383156
71	0x3b586254	0.0033017593
72	0xbd144f47	-0.036208417
73	0x3c9d5ead	0.019210184
74	0x3d673860	0.056450248
75	0x3d8f1d78	0.069880426
76	0x3c5976b4	0.01327293
77	0x3cf938a5	0.030422518
78	0x3d9b6e94	0.075894505
79	0x3dae7416	0.085182354
80	0xbd19f3ac	-0.0375859
81	0x3c9d2318	0.019181773
82	0xbd75a277	-0.05996939
83	0x3d1126c9	0.03543738
84	0x3d1f1b4c	0.03884439
85	0x3d829263	0.06375577
86	0x3d5f392b	0.05449788
87	0xbd00fec3	-0.03149296
88	0x3ccc6d45	0.024954448
89	0xbba684de	-0.005081757
90	0x3d8dc1ee	0.06921755
91	0xb86286e8	-5.400824e-05
92	0xbced06ac	-0.028933845
93	0xbc33c09f	-0.010971217
94	0x3d83672d	0.064161636
95	0xbc4d2139	-0.012520128
96	0xba49ae57	-0.000769352
97	0x3b7bb8c2	0.0038409685
98	0xbd417e6a	-0.0472397
99	0x3c9eb1df	0.019371925
100	0x3d75ab3f	0.059977766
101	0x3d301bdd	0.042995322
102	0xbd4f17f9	-0.05055997
103	0x3cf21cf5	0.029554823
104	0x3b4ea1d1	0.0031529556
105	0xbd28aaa2	-0.041178353
106	0x3d17677a	0.036963917
107	0xbcfea518	-0.031084582
108	0x3ce17a3f	0.027524112
109	0xbd623e37	-0.055235114
110	0xbd9d3074	-0.07675257
111	0xbc7994f1	-0.015233264
112	0xbd8e627b	-0.069523774
113	0xbc3af425	-0.011410748
114	0xbc6fd15f	-0.01463732
115	0xbda40086	-0.08007912
116	0xbb724b7e	-0.0036971266
117	0xbd35969c	-0.044333085
118	0x3d4379e9	0.047723684
119	0x3cfbf72c	0.03075751
120	0x3c8be15e	0.017075237
121	0x3ce6d553	0.028177893
122	0x3d37f3e5	0.04491033
123	0xbd0d2a58	-0.03446421
124	0xbc335dce	-0.010947658
125	0x3bb4198b	0.005496209
126	0x3d456a87	0.048197296
127	0x3d051a55	0.032495815
128	0x3ce2a214	0.027665175
129	0x3c908b30	0.017644495
130	0xbc48fd7b	-0.012267466
131	0x3d86b9b1	0.065783866
132	0x3d8cb906	0.06871228
133	0xbcf4a592	-0.029864106
134	0x3ccac546	0.02475227
135	0xbcf54e55	-0.029944578
136	0xbc85f51b	-0.016352227
137	0xbc83b0eb	-0.016075572
138	0xbcb99740	-0.02265513
139	0x3c98cac8	0.018651381
140	0xbbbc072f	-0.005738161
141	0x3ccaccdc	0.024755888
142	0x3d206fbb	0.039169054
143	0x3d64839f	0.055789586
144	0x3d460b10	0.048350394
145	0xbd3ef9fd	-0.046625126
146	0x3dacce68	0.08437806
147	0x3d2104b5	0.03931113
148	0x3bcf104d	0.006319082
149	0xbc184262	-0.009293171
150	0x3d22dcce	0.039761357
151	0xbc0d659c	-0.008630183
152	0x3c91271c	0.017718844
153	0xbd555f79	-0.052093003
154	0xbcd15d22	-0.025557104
155	0x3d06d2c8	0.03291586
156	0xbbd8bec3	-0.0066145374
157	0xbd2756b5	-0.040854175
158	0x3b8b5b1a	0.0042528035
159	0x3d534610	0.05158049
160	0x3c8f9927	0.017529083
161	0xbd445071	-0.047928277
162	0xbc4fcf3a	-0.012683684
163	0x3c48d601	0.012258054
164	0x3d61527f	0.055010315
165	0xbd6d65d7	-0.05795845
166	0x3cceae2a	0.025229532
167	0x3d231860	0.039818168
168	0xbcae80dc	-0.02130168
169	0x3d22a42c	0.039707348
170	0x3d9e788a	0.07737835
171	0x3d0a8752	0.033820458
172	0xba0f678c	-0.0005470447
173	0x3d7337e5	0.059379477
174	0xba244441	-0.0006266274
175	0x3dc2c145	0.095095195
176	0xbd01ba52	-0.03167183
177	0x3d824560	0.063608885
178	0x3d742193	0.05960233
179	0x3d3c0efe	0.045912735
180	0x3cab08b8	0.02087818
181	0xbd9e4923	-0.077287935
182	0xbd0adc5e	-0.033901565
183	0x3d261f11	0.04055697
184	0xbd9b1d2a	-0.07573922
185	0xbd09c1fb	-0.03363226
186	0xbd219137	-0.03944513
187	0xbc0b4db6	-0.008502414
188	0xbd291ae6	-0.041285418
189	0xbc0b8329	-0.008515158
190	0xbd219072	-0.039444394
191	0xbcc8332a	-0.02443846
192	0xbaaa4688	-0.0012990991
193	0xbd92464c	-0.07142314
194	0x3cd5fd9b	0.026121905
195	0xbcb0ae7e	-0.02156758
196	0xbd83f320	-0.06442857
197	0xbd89b429	-0.06723816
198	0x3d40563e	0.046957247
199	0xbd0cad0a	-0.03434471
200	0xbc0860eb	-0.008323888
201	0xbc61156e	-0.013738019
202	0xbd2afe3f	-0.041746374
203	0x3ca29487	0.019846214
204	0xbca71690	-0.0203965
205	0xbc3b6205	-0.011436944
206	0x3d4a437b	0.04938076
207	0x3d08db6e	0.03341239
208	0xbd1dda7d	-0.038538445
209	0xbc7eafa7	-0.0155448085
210	0x3d070695	0.03296526
211	0x3d5951a1	0.053056363
212	0x3d813ade	0.06310056
213	0x3d264e3b	0.04060195
214	0x3d6626f8	0.056189507
215	0xbd39114f	-0.045182522
216	0xbd235137	-0.039872374
217	0x3c280e0b	0.010257254
218	0x3d23396e	0.03984969
219	0x3c995e8b	0.01872184
220	0x3d81fde9	0.06347258
221	0x3cbd65f5	0.023119906
222	0xbcc7ec9d	-0.024404818
223	0x3bb44bd2	0.0055022025
224	0x3d050d14	0.032483175
225	0x3d65aab1	0.056070987
226	0xbcaf121a	-0.021370936
227	0xbd33af80	-0.04386854
228	0xbbcd8735	-0.0062722214
229	0x3dd47e0b	0.10375603
230	0xbcf921e4	-0.030411668
231	0x39dee04c	0.00042510254
232	0xbce3028c	-0.027711175
233	0xbd3420cc	-0.04397659
234	0xbd212795	-0.03934439
235	0x3e1a8941	0.1509142
236	0x3dcfc4cd	0.10144959
237	0xbd7a7452	-0.061146088
238	0xbca99203	-0.020699507
239	0x3ccf0b74	0.025274016
240	0x3d1abc96	0.037777506
241	0x3d2ba7a0	0.041907907
242	0xbd2b814c	-0.041871354
243	0xbcd057e6	-0.025432538
244	0x3c8811f9	0.016610133
245	0x3de17445	0.11008505
246	0x3a8f0749	0.0010912205
247	0xbca1366f	-0.019679276
248	0x3d94a94e	0.07258855
249	0xbc0a248a	-0.008431563
250	0xbcc41bbb	-0.023939004
251	0x3d6d2d1c	0.057904348
252	0x3d1cf178	0.03831622
253	0x3c701195	0.014652629
254	0x3d9f6ca4	0.077843934
255	0x3d186d5f	0.03721368

shared.4.bias f4 [64]
0	0x3d229a28	0.039697796
1	0xbc7e7142	-0.015529932
2	0x3c19e44e	0.009392811
3	0x3c89d834	0.016826726
4	0x3c9150e4	0.017738767
5	0xbcc85964	-0.024456687
6	0x3d12daa4	0.035853043
7	0x3d023d6c	0.031796858
8	0x3c5186ee	0.012788517
9	0x3c22ba00	0.009932041
10	0x3bdaa7ee	0.006672851
11	0x3d14178e	0.036155276
12	0x3d00b75d	0.03142487
13	0xbcb2351f	-0.021753846
14	0x3d0d9a94	0.034571245
15	0x3c4dd64f	0.012563302
16	0x3c49b79f	0.012311845
17	0x3d043c08	0.032283813
18	0x3afe4485	0.0019399083
19	0xbca4ae95	-0.020102778
20	0x3cae7c08	0.021299377
21	0x3d045856	0.032310806
22	0xbce9d474	-0.028543688
23	0xbd6850fa	-0.05671785
24	0xbd2090c1	-0.039200548
25	0xbcbb0dc5	-0.022833714
26	0x3d2f6469	0.042820368
27	0x3cbce72a	0.023059446
28	0xbd3bdeab	-0.04586665
29	0xbd047d5a	-0.032346107
30	0x3c979863	0.01850528
31	0x3d40b705	0.04704954
32	0xbd242d90	-0.040082514
33	0xbd6dfbe0	-0.058101535
34	0xbb0ad7f4	-0.0021185847
35	0xbc8098a2	-0.015697781
36	0xbcad46d4	-0.021151938
37	0xbcfcaa5f	-0.030842958
38	0xbd4e22cb	-0.05032615
39	0x3d236995	0.039895613
40	0xbd08c601	-0.033391956
41	0x3d010282	0.031496532
42	0xbab54261	-0.0013828987
43	0x3d142b64	0.036174193
44	0xbc2e593a	-0.01064139
45	0xbcc6a520	-0.02424866
46	0xbcd6ffc8	-0.026245013
47	0x3d3232a7	0.043505337
48	0x3caf7b5a	0.021421123
49	0x3b5a9ea7	0.0033358724
50	0x3d40509b	0.04695187
51	0xbd17487c	-0.03693436
52	0x3ca02a11	0.019551309
53	0x3d12bd3e	0.035825007
54	0xbd14fd9f	-0.036374684
55	0xbce89803	-0.028392797
56	0xbba81cac	-0.005130371
57	0x3c8072c5	0.015679726
58	0x3d0c4159	0.034242008
59	0xba6d4d3e	-0.00090523425
60	0x3d0ceb01	0.034403805
61	0x3c00b0d0	0.007854655
62	0x3a47d50f	0.0007622996
63	0xbd5a5ca0	-0.05331099

shared.5.weight f4 [64]
0	0x3f5fb349	0.8738294
1	0x3f7a253c	0.97713065
2	0x3f607200	0.8767395
3	0x3f699826	0.91247785
4	0x3f8c909c	1.0981631
5	0x3f7b4cd5	0.9816411
6	0x3f8b4a0f	1.0881976
7	0x3f645815	0.891969
8	0x3f86d1ad	1.0532738
9	0x3f819c5f	1.0125846
10	0x3f7843c8	0.96978426
11	0x3f7abc11	0.97943217
12	0x3f77fe71	0.9687262
13	0x3f853e5c	1.0409656
14	0x3f850765	1.0392882
15	0x3f5ffebb	0.8749806
16	0x3f841af3	1.0320724
17	0x3f79b4f4	0.9754174
18	0x3f733ccb	0.9501464
19	0x3f8710cc	1.0552001
20	0x3f77bf12	0.96775925
21	0x3f718f77	0.94359535
22	0x3f7b7abe	0.98234165
23	0x3f85fe29	1.0468189
24	0x3f56de56	0.8393301
25	0x3f6bc78a	0.9210135
26	0x3f5ec8d3	0.87025183
27	0x3f6b486a	0.9190737
28	0x3f8a44cc	1.0802245
29	0x3f7de740	0.99180984
30	0x3f7a147e	0.9768752
31	0x3f82fb68	1.0232973
32	0x3f836ae1	1.0266992
33	0x3f717840	0.9432411
34	0x3f83026b	1.0235113
35	0x3f8404af	1.0313929
36	0x3f85173c	1.0397716
37	0x3f766040	0.96240616
38	0x3f84c72c	1.0373282
39	0x3f62faee	0.8866414
40	0x3f86b42b	1.0523733
41	0x3f88b26a	1.0679448
42	0x3f7492fd	0.95536786
43	0x3f744e65	0.9543212
44	0x3f6931a2	0.9109136
45	0x3f7a2699	0.97715145
46	0x3f838730	1.0275631
47	0x3f7d8a37	0.99039024
48	0x3f873f12	1.0566123
49	0x3f83952a	1.0279896
50	0x3f6ca2f5	0.9243615
51	0x3f86f957	1.0544842
52	0x3f8690d8	1.0512953
53	0x3f71b08c	0.94410014
54	0x3f884c85	1.0648352
55	0x3f71bedb	0.9443185
56	0x3f7878d3	0.97059363
57	0x3f86e4ea	1.0538609
58	0x3f887d65	1.0663267
59	0x3f81b942	1.0134661
60	0x3f7ca6de	0.9869212
61	0x3f7a68da	0.9781624
62	0x3f831f78	1.0243979
63	0x3f6c1764	0.9222319

shared.5.bias f4 [64]
0	0xbd65295d	-0.05594765
1	0x3d69fc4e	0.057125382
2	0xbd996cad	-0.074914314
3	0xbd97f3f9	-0.07419581
4	0x3d2dc941	0.04242826
5	0xb9b30936	-0.00034148403
6	0xbca6aa00	-0.020344734
7	0xbd79c91f	-0.06098282
8	0xbc2bdb72	-0.010489332
9	0x3db7e6aa	0.089795426
10	0xbc5d505a	-0.013507927
11	0xbd9ea86c	-0.07746968
12	0x3dfe5d87	0.12420183
13	0x3a3b4b10	0.0007144669
14	0x3ccb27b3	0.024799204
15	0x3da7bc63	0.08190229
16	0xbcd455e3	-0.02591986
17	0x3c0e61bd	0.008690295
18	0x3d85d8bd	0.0653548
19	0xbcff9f52	-0.0312039
20	0x3c6853a7	0.0141801005
21	0x3d238dc9	0.03993014
22	0xbc5ee118	-0.013603471
23	0xbe25068c	-0.16115779
24	0xbdc19466	-0.09452133
25	0xbbffbaeb	-0.007804265
26	0xbdb4ec06	-0.088340804
27	0xbda6f2bd	-0.081517674
28	0xbcf496d6	-0.02985708
29	0xbcb6719a	-0.022270966
30	0x3d91ac32	0.07112922
31	0xbc03066a	-0.007997135
32	0xbc2616e4	-0.0101372935
33	0xbd755667	-0.059896853
34	0x3b4c57f3	0.0031180352
35	0xbd14c323	-0.03631891
36	0xbd85cf57	-0.065336876
37	0xbd1a39b6	-0.037652694
38	0xbd560442	-0.052250154
39	0xbe27662e	-0.16347572
40	0xbda95f0e	-0.08270083
41	0xbc97fb8e	-0.018552568
42	0xbe0b5d40	-0.13609791
43	0xbd0b9804	-0.03408052
44	0xbde3adb6	-0.11117117
45	0xbd7cc937	-0.06171533
46	0xbc9e0f66	-0.019294452
47	0xbe09f0d2	-0.13470772
48	0xbba8e659	-0.0051544127
49	0xbaed86f7	-0.0018121888
50	0xbbdd48f0	-0.0067530796
51	0xbc1c7d30	-0.009551331
52	0xbb07eee1	-0.0020741748
53	0xbd17b968	-0.03704205
54	0xbdca17bb	-0.098678075
55	0xbbb3a2e2	-0.0054820636
56	0xbaf12a2f	-0.0018399413
57	0xbd2fb85e	-0.042900436
58	0xbe001388	-0.1250745
59	0xbbf5bb80	-0.0074991584
60	0x3e3bf6a0	0.18355799
61	0xbc821dec	-0.015883408
62	0xbd1bdd1e	-0.03805267
63	0x3d7143ad	0.05890243

shared.5.running_mean f4 [64]
0	0x3fceabd9	1.6146194
1	0xbd07ec29	-0.033184204
2	0x3f596209	0.84915215
3	0xbf42a3ed	-0.7603138
4	0xbf9b9778	-1.21556
5	0xbf3cd7be	-0.73766696
6	0xc093cfc1	-4.6191106
7	0x3f088a7f	0.5333633
8	0xc061470a	-3.5199609
9	0xbebdc273	-0.37062415
10	0xc080796d	-4.0148225
11	0x3eb7483a	0.35797292
12	0xbf883886	-1.064225
13	0xbf572262	-0.8403684
14	0xc06a02fd	-3.6564324
15	0xc005e3fd	-2.0920403
16	0xc03efada	-2.9840608
17	0x3f512a99	0.81705624
18	0xbe11af85	-0.14227112
19	0xbf710330	-0.9414549
20	0x3e01b336	0.1266602
21	0xbe2ecbe4	-0.17069966
22	0xc081d227	-4.0569034
23	0xbfa2110a	-1.266145
24	0x3fa945a5	1.3224379
25	0xbef66c2a	-0.48129398
26	0x3e5c4b96	0.21513209
27	0xbff7cd12	-1.9359457
28	0xc06644e8	-3.5979557
29	0xbfbacb81	-1.4593354
30	0xbf81e4c2	-1.0147936
31	0xc04a4cc1	-3.1609347
32	0xc05ae3be	-3.4201503
33	0x3f2d5691	0.67710215
34	0xbedaaff8	-0.42712379
35	0xbf9e8386	-1.2383888
36	0xbf5dc008	-0.8662114
37	0x3ec21a40	0.37910652
38	0xc08dbb4a	-4.4291124
39	0x4057a5c6	3.369493
40	0xbf807b47	-1.0037621
41	0xc08e9eee	-4.4569006
42	0x3f97e6cc	1.1867309
43	0x3ed492da	0.4151829
44	0xbf85b95a	-1.044719
45	0x3e576317	0.21033894
46	0xc07387de	-3.8051677
47	0xc03815b4	-2.8763247
48	0xc02cb16c	-2.698329
49	0xbf82ba4b	-1.0213102
50	0xc0609cfb	-3.5095813
51	0xc084b400	-4.1469727
52	0xbf53742a	-0.8259913
53	0x3d4aaff2	0.0494842
54	0x401e3aa3	2.472329
55	0xbfcd6265	-1.6045653
56	0xc0973b6b	-4.726003
57	0xbf1f5075	-0.6223214
58	0x3fd24e8d	1.6430222
59	0xc032d2b6	-2.7941108
60	0xbecc28d8	-0.3987491
61	0x3e002dfe	0.12517545
62	0xbf16d75e	-0.58922374
63	0xc06311d7	-3.5479639

shared.5.running_var f4 [64]
0	0x40e8c868	7.2744637
1	0x403253f4	2.786374
2	0x402316e8	2.548273
3	0x402f6bf2	2.7409635
4	0x40949592	4.643258
5	0x3fe2767a	1.7692406
6	0x41e6d0b6	28.85191
7	0x4107ca16	8.486837
8	0x41a414c5	20.510141
9	0x4003de8c	2.0604582
10	0x41a2c33c	20.34533
11	0x40791da2	3.8924336
12	0x408734de	4.2252035
13	0x4034394b	2.815997
14	0x4098d573	4.776056
15	0x4112dea6	9.179358
16	0x41878329	16.939043
17	0x403a073b	2.9066913
18	0x3fe3d897	1.7800473
19	0x4037aadf	2.8698041
20	0x40786ac3	3.8815162
21	0x40adec64	5.4351063
22	0x419a0c15	19.2559
23	0x40c950e9	6.2911267
24	0x40b31502	5.5963144
25	0x40a7667e	5.2312613
26	0x408939be	4.2882986
27	0x40210154	2.515706
28	0x41a1288c	20.144798
29	0x40847643	4.1394362
30	0x4094cb7f	4.649841
31	0x419b998b	19.449972
32	0x4189acd4	17.209389
33	0x4080f2ee	4.0296545
34	0x406562ff	3.5841672
35	0x408d51f0	4.416252
36	0x402e25ca	2.7210565
37	0x4026629e	2.599769
38	0x41af4a05	21.911142
39	0x40542f18	3.3153744
40	0x40e7672c	7.231344
41	0x41cdd1ec	25.7275
42	0x40c86f0c	6.2635555
43	0x400e086b	2.2192638
44	0x40122b30	2.283886
45	0x4053722a	3.303843
46	0x419d1c84	19.638924
47	0x40a45e3f	5.1365047
48	0x40033275	2.0499547
49	0x40595dce	3.3963504
50	0x41891bac	17.138512
51	0x41aae425	21.361399
52	0x407c4aff	3.9420774
53	0x4007d807	2.1225603
54	0x4091089a	4.5323
55	0x403e4c71	2.9734156
56	0x41bc947b	23.5725
57	0x4093b46e	4.615775
58	0x40989411	4.7680745
59	0x416cae66	14.792578
60	0x4081e3d0	4.059059
61	0x405b49b4	3.4263735
62	0x40805dab	4.011434
63	0x418541c3	16.65711

cls_head.0.weight f4 [128, 64, 3, 3]
0	0xbc085949	-0.0083220685
1	0x3d1eb4e1	0.03874672
2	0x3d094f97	0.03352317
3	0x3cbef876	0.023311835
4	0xbc07b94f	-0.008283927
5	0x3c95ee7e	0.018302198
6	0x3ba602b6	0.005066241
7	0x3cbb49e6	0.022862386
8	0x3c87a4f8	0.016558155
9	0xbc501318	-0.012699865
10	0xbcfed2be	-0.03110635
11	0xbcbe4533	-0.023226356
12	0x3b7f81fa	0.0038987384
13	0xbc97fb15	-0.018552342
14	0x3ba135e4	0.0049197543
15	0xbd027c35	-0.031856734
16	0xbcfcf539	-0.03087865
17	0xbd8cc03e	-0.06872605
18	0x3da6f9e3	0.08153131
19	0x3d20f97c	0.039300427
20	0x3d766d39	0.060162757
21	0x3d5e5e4f	0.05428916
22	0x3c6c5002	0.014423372
23	0x3d50b643	0.05095507
24	0x3d60de18	0.054899305
25	0x3d8cbf82	0.06872465
26	0x3d31bccd	0.043392945
27	0xbba7c7b7	-0.0051202434
28	0xbca529a5	-0.02016146
29	0x3c2b0756	0.010438761
30	0xbc3aecac	-0.011408966
31	0xbd07cfdf	-0.033157226
32	0x3cac2f0a	0.021018524
33	0xbd83dde3	-0.06438806
34	0xbd940f2e	-0.07229458
35	0xbd5e42c8	-0.054262906
36	0xbd292f23	-0.04130472
37	0xbda50acd	-0.08058701
38	0xbdf10121	-0.117677934
39	0xbcd7841f	-0.026308117
40	0xbd90dc35	-0.07073251
41	0xbd814114	-0.06311241
42	0xbadc9923	-0.0016830306
43	0x3c52d627	0.012868441
44	0xbc4144f7	-0.011796228
45	0x3c88338d	0.016626144
46	0x3cef8b0c	0.029241107
47	0x3d319b96	0.04336127
48	0x3ba5b658	0.0050571375
49	0xbc66f79e	-0.0140971225
50	0x3d6c242d	0.057651687
51	0xbd1dacaa	-0.038494743
52	0x3c9df967	0.019283963
53	0x3c8aea1e	0.016957339
54	0x3d197698	0.037466615
55	0xbd15179b	-0.036399465
56	0x3c953d12	0.018217597
57	0x3d2b6e2b	0.04185311
58	0x3c2a3802	0.01038933
59	0x3d7171ed	0.05894654
60	0x3d3fb6b7	0.04680511
61	0x3bb1af63	0.005422519
62	0x3d4a03ea	0.04932014
63	0x3ca3e701	0.020007612
64	0x3d6329b1	0.055459682
65	0x3c3defc7	0.011592812
66	0xbaca1502	-0.0015417638
67	0x3d01301b	0.031540018
68	0x3cd3aeae	0.02584013
69	0x3d81d818	0.06340045
70	0x3c231378	0.009953372
71	0x3d2bc87e	0.04193925
72	0x3b6845be	0.003544196
73	0x3d27d415	0.04097374
74	0x3ca9ee7f	0.020743607
75	0x3d6874ff	0.0567522
76	0x3d054cac	0.032543823
77	0x3cede9fd	0.029042238
78	0x3d1ae08e	0.03781181
79	0xbc9cfa3b	-0.019162288
80	0x3d5f9931	0.054589454
81	0x3c7e91f8	0.015537731
82	0xbbf39a6c	-0.00743418
83	0x3cef31b3	0.029198503
84	0x3cfa81da	0.030579496
85	0x3b743c2f	0.0037267318
86	0xbbf7c068	-0.0075607784
87	0x3c88591a	0.01664405
88	0x3cc76272	0.024338935
89	0xbc259097	-0.010105274
90	0xbceb2acf	-0.028706936
91	0xbc80038e	-0.015626695
92	0x3caa9f02	0.020827774
93	0x3ce378d3	0.027767574
94	0xbd2d53fb	-0.04231642
95	0xbcbd3d72	-0.023100588
96	0x3d584dcb	0.052808564
97	0xbd17d444	-0.037067667
98	0x3c4b169b	0.012395526
99	0xbb806da7	-0.0039193216
100	0x3d05cf1b	0.032668214
101	0x3c839095	0.016060153
102	0xbbe06ea4	-0.006849127
103	0xbd3379c7	-0.043817308
104	0x3c35a004	0.011085514
105	0xbd9a376d	-0.07530103
106	0xbd438ace	-0.047739796
107	0x3c8723b2	0.016496513
108	0xbd7477ad	-0.059684444
109	0xbd40b738	-0.04704973
110	0xbd82d8d5	-0.06389014
111	0xbd543a14	-0.0518132
112	0xbd08b291	-0.03337342
113	0xbcbea819	-0.023273515
114	0x3be97367	0.0071243527
115	0xbd226a68	-0.03965226
116	0xbd4c559e	-0.04988634
117	0xbd2ceade	-0.042216174
118	0xbd1092ef	-0.035296377
119	0xbd5a7324	-0.053332463
120	0xbb43a5b8	-0.0029853415
121	0xbcfffee1	-0.031249465
122	0xbd166ae3	-0.03672303
123	0xbd81c025	-0.06335477
124	0xbd0e0fe0	-0.03468311
125	0xbda284d4	-0.07935491
126	0x3dde3e26	0.108516976
127	0x3d47cdd7	0.04878029
128	0x3d85de38	0.065365255
129	0x3d5fd6b2	0.05464811
130	0x3dabe15d	0.08392594
131	0x3ca1d607	0.019755377
132	0x3d260b98	0.0405384
133	0x3d9dcaf7	0.07704728
134	0x3dc09d9f	0.09405064
135	0x3b6a0e1d	0.0035713979
136	0x3a91de5c	0.001112889
137	0x3c9c4a3d	0.019078368
138	0x3c71da42	0.014761509
139	0xbd00c9c6	-0.031442426
140	0x3d030fa9	0.031997357
141	0xbb620a60	-0.0034491047
142	0xbd0f9d2b	-0.035061996
143	0x3d1ae4ee	0.03781598
144	0xbcd5bc54	-0.026090778
145	0xbd9205bf	-0.07130002
146	0xbd060f35	-0.032729346
147	0x3d103777	0.035209145
148	0xb97be501	-0.00024022536
149	0x3d01dfe8	0.031707674
150	0x38e1ddde	0.00010770162
151	0xbd4e0f05	-0.050307292
152	0x3b92e40e	0.0044827526
153	0x3c304431	0.010758446
154	0xbb57f88e	-0.0032954547
155	0xbb1506fa	-0.0022739754
156	0xba20a48c	-0.0006128035
157	0x3bf3367a	0.0074222656
158	0x3cdb981e	0.026805934
159	0x3b99db49	0.0046953303
160	0x3c732b34	0.014841843
161	0xbabdf5ea	-0.0014492844
162	0x3d1ed6ec	0.038779184
163	0x3ca0b7c5	0.019618878
164	0xbd048f5a	-0.032363273
165	0x3d38d59d	0.045125592
166	0x3d09fe57	0.033689823
167	0xbbae0f70	-0.005311899
168	0x3c0f6be1	0.008753748
169	0xbd03480b	-0.032051127
170	0xbccdd7c7	-0.025127305
171	0x3c979b23	0.018506592
172	0x3ba51eb1	0.005039059
173	0xbd26867c	-0.040655598
174	0xba95e5e8	-0.0011436315
175	0xbd3de563	-0.04636134
176	0x3b7a7f35	0.0038222794
177	0xbc9a90c2	-0.018867854
178	0xbcca4560	-0.024691284
179	0xbd5a0220	-0.053224683
180	0xbcce1f5c	-0.025161438
181	0xbd1da520	-0.038487554
182	0xbcb35a0c	-0.021893524
183	0xbc9a4b8a	-0.018834848
184	0xbcb62783	-0.022235638
185	0xbd32ec5e	-0.04368245
186	0xbd76348c	-0.060108706
187	0xbb8d7e0a	-0.0043180035
188	0xbd87e3c2	-0.06635238
189	0xbceeba7f	-0.029141663
190	0x3c9b272b	0.018939575
191	0xbb053c5e	-0.002033017
192	0x3c19715d	0.009365407
193	0xbbc3b892	-0.00597293
194	0xbd4f96d9	-0.05068097
195	0xbce3ec73	-0.027822709
196	0xbcb381ea	-0.021912534
197	0x3b913ce2	0.0044323066
198	0x3c0584cd	0.008149338
199	0x3d27f3de	0.041004054
200	0x3d76cbbf	0.0602529
201	0x3cef3ef7	0.029204829
202	0x3d3699be	0.044580214
203	0x3c32b799	0.010908031
204	0x3d489c3a	0.048977114
205	0x3cdb97d3	0.026805794
206	0x3ce169d0	0.027516276
207	0xbdbc5028	-0.09194976
208	0xbdc13d65	-0.09435538
209	0xbdb89239	-0.09012265
210	0xbd863933	-0.06553879
211	0xbd7af33b	-0.06126712
212	0xbd8d7a5b	-0.06908103
213	0xbd8488e6	-0.06471424
214	0xbd0bfb29	-0.034175072
215	0x3b86d988	0.004115287
216	0xbaca1d1d	-0.0015420053
217	0x3d5ccb4f	0.053904828
218	0x3cdec4a1	0.02719337
219	0xbb91bd23	-0.0044475957
220	0xbd4b3234	-0.049608424
221	0x3bb3066e	0.005463413
222	0xbc594f6f	-0.013263567
223	0xbca02da4	-0.019553013
224	0xbc6471b1	-0.013943122
225	0xbd2d0194	-0.042237833
226	0xbd07fbe1	-0.033199195
227	0xbd2cd2fc	-0.042193398
228	0xbcdd8290	-0.027039796
229	0xbccd918a	-0.025093812
230	0xbd1c9c64	-0.038235083
231	0xbcb6cae9	-0.022313552
232	0x3c224d3e	0.009906111
233	0xbc494078	-0.012283437
234	0xbc1fdecf	-0.009757712
235	0x3ce43958	0.027859375
236	0x3c07a06b	0.008277993
237	0x3c025756	0.007955393
238	0xbc9cadc0	-0.01912582
239	0x3d551fbf	0.05203223
240	0x3d342374	0.043979123
241	0x3d3b64aa	0.045750298
242	0x3d9757b6	0.073897764
243	0x3b1e371f	0.0024141741
244	0xbce669b9	-0.028126584
245	0xbd15cabf	-0.036570307
246	0xbd09a8ce	-0.03360825
247	0xbd1f2e88	-0.038862735
248	0xbcf4bbf9	-0.029874789
249	0x3c384210	0.011246219
250	0x3caadc4e	0.020857003
251	0xbb462a20	-0.003023751
252	0x3c32ec81	0.010920645
253	0x3cb66237	0.02226363
254	0xba2aea31	-0.00065198826
255	0x3cc97e4d	0.024596358

cls_head.0.bias f4 [128]
0	0x3c9a225b	0.01881521
1	0x3ca204b7	0.019777639
2	0xbc87f650	-0.016596943
3	0x3d1fb9da	0.0389956
4	0xbca0cbc4	-0.019628413
5	0xbd29e39f	-0.041476842
6	0xbc3dcbda	-0.0115842465
7	0xbb235029	-0.0024919605
8	0x3d07283f	0.032997366
9	0xbb80b318	-0.0039275996
10	0xba9c8fea	-0.0011944745
11	0x3b8311ec	0.003999939
12	0xbc01efb6	-0.007930687
13	0x3b923837	0.0044622677
14	0x3c861ef4	0.016372181
15	0x3d1ba287	0.037996795
16	0xbd1fce6d	-0.039015222
17	0xbceac6fd	-0.028659338
18	0xbd0e43d2	-0.034732647
19	0x3d2b0c26	0.041759633
20	0xbd071c01	-0.03298569
21	0x3ca9b60a	0.020716686
22	0x3cd7ee76	0.026358824
23	0xbd1429ef	-0.036172803
24	0xbc5ef81b	-0.013608958
25	0x3c89c2f7	0.0168166
26	0xbb9a1d5c	-0.004703207
27	0x3c42e8f4	0.011896361
28	0xbd1e9f39	-0.038726065
29	0xbc8d9bd5	-0.01728622
30	0x3ccd7e3b	0.025084605
31	0xbcf2fccc	-0.029661559
32	0x3c163730	0.009168431
33	0x3d136123	0.03598131
34	0x3b83260c	0.0040023383
35	0xbc419f51	-0.011817769
36	0x3b7a2bb9	0.0038173033
37	0xbd0a0ca1	-0.03370345
38	0x3c4e171d	0.012578753
39	0xbbd19b68	-0.0063966997
40	0xbcd0456f	-0.025423734
41	0xbbb911cb	-0.005647873
42	0xbd0fc077	-0.03509566
43	0xbd045439	-0.032306883
44	0xbb95e074	-0.004573876
45	0x3d19b873	0.03752942
46	0x3ca685e9	0.020327525
47	0xbc75e76e	-0.01500879
48	0x3c30b15f	0.010784476
49	0xbd123d1c	-0.03570281
50	0x3cd2fe71	0.025756093
51	0xbc3bf6e4	-0.0114724375
52	0xbc21d3f6	-0.009877196
53	0x3c8b88bc	0.017032973
54	0xbd15e6af	-0.03659695
55	0x3ca59084	0.020210512
56	0xbd22ecb8	-0.039776534
57	0xbb358d79	-0.0027702732
58	0xbc75c3d1	-0.0150003
59	0xbd0f0057	-0.034912433
60	0x3cc7236f	0.024308888
61	0xbca64c76	-0.020300131
62	0xbb753e47	-0.0037421153
63	0x3cda097c	0.02661585
64	0xbce9eeb1	-0.0285562
65	0x3d0227e5	0.031776328
66	0xbc3cc4ce	-0.011521531
67	0x3d15129b	0.036394697
68	0x3ccf7749	0.025325434
69	0xbc9ff33c	-0.019525163
70	0xbd14a75c	-0.03629242
71	0x3d00e2f3	0.031466436
72	0xbd24895b	-0.040170055
73	0x3d0798d3	0.03310473
74	0xbca46dfa	-0.020071972
75	0x3bfa87af	0.0076455693
76	0x3b94bb19	0.0045389053
77	0xbcbb46f6	-0.022860985
78	0x3d1a7c96	0.03771647
79	0x3d2986fe	0.041388504
80	0x3d26a7e0	0.04068744
81	0xbcd4e7a7	-0.025989367
82	0x3cb0f11e	0.021599349
83	0xbca177e0	-0.019710481
84	0xbd235c7b	-0.039883118
85	0xbccbec53	-0.024892962
86	0xbcd75a22	-0.026288096
87	0xbd1a022d	-0.03759973
88	0x3c54c6c3	0.012986842
89	0x3baf16e7	0.0053433063
90	0xbcabfd6d	-0.020994866
91	0x3d1faf31	0.038985435
92	0x3d1d0fb4	0.038345054
93	0x3ca37b09	0.019956129
94	0x3c30daf2	0.010794388
95	0x3b033e89	0.0020026288
96	0x3c926760	0.017871559
97	0x3c5629c9	0.013071486
98	0x3d0cde2d	0.03439157
99	0xbb95052b	-0.004547735
100	0x3cf2b148	0.02962555
101	0xbd095e85	-0.033537406
102	0xbcc29ee0	-0.023757398
103	0xbce8f72f	-0.028438179
104	0xbd0b7d89	-0.034055267
105	0x3c22e9e5	0.00994346
106	0x3c24babf	0.010054289
107	0xbbbeecb8	-0.005826559
108	0xbce48313	-0.027894532
109	0xbcbc3414	-0.022974052
110	0xbb54100b	-0.0032358195
111	0x3a93714a	0.0011248973
112	0x3d0c855a	0.03430686
113	0x3c20e5b7	0.009820393
114	0xbc94b748	-0.018153802
115	0xbcc7b33c	-0.024377458
116	0x3c1acd27	0.009448326
117	0xbc3dc023	-0.0115814535
118	0xbd20548b	-0.039143126
119	0x3cb4407b	0.022003403
120	0x3cf30e02	0.029669765
121	0xbcc2f1c0	-0.023796916
122	0xbcd929b7	-0.026509149
123	0xbb1f5635	-0.0024312858
124	0xbcd10e31	-0.025519462
125	0x3aab1d70	0.0013055038
126	0x3cb6829c	0.022279076
127	0x3c888a15	0.016667405

cls_head.1.weight f4 [128]
0	0x3f8ea074	1.1142716
1	0x3f90f2ed	1.1324135
2	0x3f80d029	1.0063525
3	0x3f8ed29e	1.1158025
4	0x3f8d923d	1.1060253
5	0x3f905c44	1.1278157
6	0x3f972df3	1.1810898
7	0x3fa2ae7b	1.2709497
8	0x3f920589	1.1407939
9	0x3f961177	1.172408
10	0x3f94f050	1.1635838
11	0x3f8bcd78	1.0922079
12	0x3f93d884	1.155045
13	0x3f9a7ce1	1.206936
14	0x3f9273df	1.1441611
15	0x3f9b1857	1.2116803
16	0x3f9133f2	1.1343977
17	0x3f9dec0d	1.2337662
18	0x3f972ff3	1.1811508
19	0x3f983250	1.1890354
20	0x3f8a330a	1.0796826
21	0x3f95ab90	1.1692982
22	0x3f9a6714	1.2062707
23	0x3f8f1c28	1.1180468
24	0x3f8c21a3	1.0947765
25	0x3f9d4efe	1.2289732
26	0x3f9e4c96	1.2367122
27	0x3f98d062	1.1938593
28	0x3f890d5c	1.0707202
29	0x3f95bf4d	1.1699005
30	0x3f8f6999	1.1204101
31	0x3f8f2a4d	1.1184784
32	0x3f988b6f	1.1917552
33	0x3f9ef0ee	1.2417276
34	0x3f96ef10	1.1791706
35	0x3f9143cd	1.1348816
36	0x3fa0ff37	1.2577885
37	0x3f8eba7e	1.1150663
38	0x3f969d5c	1.1766772
39	0x3f8dbdb4	1.1073518
40	0x3f874c0f	1.0570086
41	0x3f963d7a	1.1737511
42	0x3f981359	1.1880904
43	0x3f91f8fe	1.1404111
44	0x3f954afd	1.166351
45	0x3f8ff8f9	1.1247855
46	0x3f935e96	1.151324
47	0x3f905e70	1.127882
48	0x3f89a499	1.0753356
49	0x3fa4bb4a	1.2869656
50	0x3f89d2a0	1.0767403
51	0x3f902cb7	1.1263646
52	0x3f992141	1.1963273
53	0x3f952e3c	1.1654735
54	0x3f923b7c	1.1424403
55	0x3f8d3a61	1.1033441
56	0x3f976990	1.182909
57	0x3f9aa8aa	1.2082722
58	0x3f94a26a	1.1612065
59	0x3f8d571c	1.1042209
60	0x3f94a9a7	1.1614274
61	0x3f89b98b	1.0759748
62	0x3f9789d7	1.183894
63	0x3f982749	1.1886989
64	0x3fa6b2d5	1.3023325
65	0x3f8a343e	1.0797193
66	0x3fa23731	1.2673093
67	0x3f94cd30	1.1625118
68	0x3f919238	1.1372747
69	0x3f90de2d	1.1317803
70	0x3f8b3698	1.0876036
71	0x3f88789d	1.0661808
72	0x3fa48efe	1.2856138
73	0x3f8e6146	1.1123435
74	0x3f8db4bb	1.107078
75	0x3f89d768	1.0768862
76	0x3f91c694	1.1388726
77	0x3fa0bf7d	1.2558438
78	0x3f9780d2	1.1836188
79	0x3f9f0d5c	1.2425952
80	0x3f8ebda8	1.1151628
81	0x3f935e3a	1.1513131
82	0x3fa022f6	1.2510669
83	0x3f8cf16a	1.1011174
84	0x3f8bf73c	1.0934825
85	0x3f9049f1	1.1272565
86	0x3f8c8375	1.0977618
87	0x3f8f4822	1.1193888
88	0x3f96b1b7	1.1772984
89	0x3f8ea127	1.114293
90	0x3f8fb5e1	1.122738
91	0x3f8a0588	1.0782938
92	0x3f94a766	1.1613586
93	0x3f8bd2eb	1.0923742
94	0x3fa39286	1.277909
95	0x3f93a047	1.1533288
96	0x3f8d6f81	1.1049653
97	0x3f93bda3	1.1542248
98	0x3f99897b	1.1995081
99	0x3fa13ff5	1.2597643
100	0x3f98d88e	1.1941087
101	0x3f9126e4	1.1339993
102	0x3f8c4b1e	1.0960424
103	0x3f92de1a	1.147403
104	0x3f9fac91	1.2474538
105	0x3f8d3cf3	1.1034225
106	0x3f954d65	1.1664244
107	0x3f871516	1.055331
108	0x3f8b4a9f	1.0882148
109	0x3f8fc49b	1.1231874
110	0x3f95e01d	1.1709019
111	0x3f8ce65b	1.1007799
112	0x3f8cd319	1.1001922
113	0x3f8f7520	1.1207619
114	0x3f8d36bb	1.1032327
115	0x3f94726d	1.159742
116	0x3f8ec932	1.115515
117	0x3f8be92c	1.0930533
118	0x3f972fc8	1.1811457
119	0x3f91f1ee	1.1401956
120	0x3f92fae7	1.1482819
121	0x3f932469	1.1495486
122	0x3f8d821f	1.1055335
123	0x3f935207	1.1509408
124	0x3f8c9541	1.0983049
125	0x3f8e31d6	1.1108959
126	0x3f94ffa9	1.1640521
127	0x3f9221a6	1.1416519

cls_head.1.bias f4 [128]
0	0xbca6c6d2	-0.020358477
1	0x3e0b08f4	0.13577634
2	0x3d706d58	0.05869803
3	0x3b854db7	0.004068102
4	0x3cc32a0c	0.02382376
5	0xbc05fcc1	-0.008177937
6	0x3d594f72	0.05305428
7	0x3e40784c	0.1879589
8	0x3b612b4c	0.0034358082
9	0x3e1bf039	0.15228356
10	0x3d614498	0.054997057
11	0x3dfafe0b	0.12255486
12	0x3d08dba5	0.033412594
13	0x3e15a975	0.14615424
14	0x3e0ba61d	0.13637586
15	0x3e107e56	0.14110693
16	0x3c922e72	0.017844412
17	0x3e465fc3	0.19372468
18	0x3e391075	0.18072684
19	0x3e28293d	0.16421981
20	0x3dbb9ec3	0.09161141
21	0x3e1e247f	0.1544361
22	0x3e10d690	0.14144349
23	0xbc42a708	-0.011880644
24	0x3c98dc45	0.01865972
25	0x3dae8fd8	0.0852353
26	0x3e39ec30	0.18156505
27	0x3e1caea6	0.15300998
28	0xbb0584ca	-0.0020373338
29	0x3a854687	0.0010168114
30	0x3e1b2929	0.1515242
31	0x3e09dd7f	0.134634
32	0x3e366605	0.17812355
33	0x3e4a7f73	0.1977518
34	0x3c53dbd7	0.012930832
35	0x3e1ff15e	0.15619418
36	0x3e704524	0.23463875
37	0x3b9efeb6	0.0048521413
38	0x3e1536f0	0.14571738
39	0x3bb4d692	0.005518743
40	0x3dbef6e2	0.09324433
41	0x3dfd8742	0.12379314
42	0x3e37299a	0.17886963
43	0x3c1fed62	0.009761186
44	0x3d401a62	0.04690016
45	0xbbb52bf2	-0.0055289203
46	0x3d1714ec	0.036885187
47	0xbc8a303d	-0.016868705
48	0x3daf08d0	0.08546603
49	0x3e516b3a	0.2045106
50	0x3dd3a3af	0.103339545
51	0x3d9674fe	0.07346533
52	0x3e27259f	0.16322945
53	0x3c53eaeb	0.012934427
54	0x3e0fd287	0.14045154
55	0x3b62e4f5	0.0034621332
56	0x3e2f6e55	0.17131932
57	0x3e1c8ce4	0.1528812
58	0x3dfefec3	0.12450936
59	0x3dcca679	0.0999269
60	0x3e146e16	0.1449512
61	0x3daf452c	0.08558115
62	0x3e076cc4	0.13225085
63	0x3cdc5bfc	0.02689933
64	0x3e557404	0.20845038
65	0x3daa6460	0.08319926
66	0x3e4768fc	0.19473642
67	0x3e2774d5	0.16353162
68	0x3e2e0558	0.16994226
69	0xbc144038	-0.009048514
70	0x3d14f69a	0.03636799
71	0xb90df064	-0.0001353636
72	0x3e258332	0.16163328
73	0x3e0464d6	0.12929091
74	0x3c14de48	0.009086199
75	0x3b92918e	0.004472918
76	0x3e109027	0.1411749
77	0x3e55b397	0.2086929
78	0x3cff62ec	0.0311751
79	0x3e3c2380	0.18372917
80	0x3dc6f331	0.09714354
81	0x3e04fca6	0.12987003
82	0x3d0c4637	0.03424665
83	0xbcba1f4d	-0.022720004
84	0x3e09832b	0.13428943
85	0x3e142757	0.14468132
86	0xbc68031a	-0.014160896
87	0x3def8613	0.116954945
88	0x3e07139e	0.13191077
89	0x3dde437c	0.108527154
90	0xbc13f1b2	-0.009029793
91	0xb87f9d99	-6.0943512e-05
92	0x3d1ce123	0.038300645
93	0x3ba88d37	0.0051437872
94	0x3d5949fc	0.053049073
95	0xbb0e38df	-0.0021701378
96	0x3cc4cad8	0.024022505
97	0x3e1cb3c9	0.15302958
98	0x3d38c959	0.045113895
99	0x3d07dc32	0.03316898
100	0x3e052ba4	0.13004929
101	0x3db112d1	0.08646167
102	0xbcc28e27	-0.023749424
103	0x3e15cdbc	0.14629263
104	0x3e326f56	0.17425284
105	0x3e178687	0.14797412
106	0x3d81e41b	0.06342336
107	0x3d89858d	0.06714926
108	0xbce31280	-0.027718782
109	0x3e164d2c	0.14677876
110	0x3d92d89e	0.07170223
111	0x3e038f60	0.12847662
112	0x3df91174	0.12161532
113	0x3d15a356	0.036532722
114	0x3d64eafd	0.055888165
115	0x3cac7833	0.02105341
116	0x3ded49f2	0.115863696
117	0x3e1928be	0.14956948
118	0x3c4a4814	0.012346286
119	0x3d2c24ea	0.04202739
120	0x3c1910e7	0.009342409
121	0x3e00ee62	0.12590936
122	0x3d0f55a8	0.034993798
123	0x3d3300e0	0.043702006
124	0xbca4d472	-0.020120833
125	0x3de3e43b	0.11127516
126	0x3e1fe584	0.15614897
127	0x3cda3838	0.026638135

cls_head.1.running_mean f4 [128]
0	0xbe9683ae	-0.2939734
1	0x4036162d	2.8451035
2	0x408f1a58	4.471966
3	0xbf2a4683	-0.6651384
4	0x3dd344f8	0.10315889
5	0x3e19e922	0.1503034
6	0xbff4f048	-1.9135828
7	0x402a3208	2.6593037
8	0xc055117c	-3.3291922
9	0x40010d8f	2.0164526
10	0xbfb220fc	-1.3916316
11	0xbe683964	-0.22678143
12	0xbfd37922	-1.6521342
13	0x3fd03b4b	1.6268095
14	0x407f52d9	3.9894316
15	0x406e69dd	3.7252114
16	0x3fbe2bd5	1.4857126
17	0x4090e03b	4.527372
18	0xbec45a30	-0.38350058
19	0x405d56d5	3.4584248
20	0x4022aed6	2.5419211
21	0x401259a9	2.2867224
22	0x40a2dfd9	5.089825
23	0x3e0ba4e4	0.1363712
24	0xbee54b1f	-0.44783875
25	0xc038dce2	-2.8884816
26	0x4010fe74	2.2655306
27	0x4085d0e3	4.181749
28	0xbf91ca6f	-1.1389903
29	0x3e52a1a3	0.20569472
30	0x40c81e27	6.2536807
31	0x40371832	2.8608518
32	0x40e55182	7.1661997
33	0x40b470ab	5.6387534
34	0x3f8f7aa2	1.12093
35	0x3fc110f0	1.5083294
36	0x407f81fe	3.992309
37	0xbf88f314	-1.0699182
38	0x3fe2787c	1.7693019
39	0x406eb58c	3.7298307
40	0xbf672d4a	-0.9030348
41	0x402b51ae	2.6768603
42	0x40426ef6	3.0380225
43	0xbe824e9e	-0.25450605
44	0x3eb11aaa	0.34590656
45	0xbf45f8cc	-0.7733276
46	0xbe1bf90e	-0.15231726
47	0x3fbdeb4d	1.4837433
48	0x408be03a	4.3711214
49	0x405177b7	3.2729318
50	0x408bb706	4.3660917
51	0xbf902da1	-1.1263925
52	0x3fe48a00	1.7854614
53	0xbff3801a	-1.9023468
54	0x402da229	2.7130225
55	0xbfdccf4a	-1.725076
56	0x409bc7c6	4.8681364
57	0x402be46a	2.6858163
58	0x40419df6	3.0252662
59	0x409b4748	4.8524513
60	0x40887824	4.2646656
61	0x405ce178	3.4512615
62	0x409697d2	4.7060328
63	0x3fdabe41	1.7089311
64	0x3f651ac1	0.8949395
65	0xbe534d51	-0.20634963
66	0x402b2c0e	2.674564
67	0x402d0bc0	2.7038422
68	0x3fc93bca	1.5721371
69	0x3f6ae57e	0.9175643
70	0xc01eab5a	-2.4792085
71	0xbed5ab6e	-0.41732353
72	0x3f7ea662	0.9947263
73	0x40ad3914	5.4132175
74	0x3f4c1e91	0.7973414
75	0x40479df6	3.1190162
76	0x3fd3774f	1.6520785
77	0xbe40b1de	-0.18817851
78	0x4060bbd5	3.5114644
79	0x40212da1	2.51841
80	0xbfa81193	-1.3130363
81	0x40a2f89a	5.092847
82	0x407f8c0b	3.9929225
83	0xbe276f1b	-0.16350977
84	0x3e36309c	0.1779198
85	0x3fb3ea45	1.4055868
86	0x3f778cb6	0.9669908
87	0x3f9357fc	1.1511226
88	0x40440842	3.063004
89	0x4090b77a	4.522397
90	0x400e2fc5	2.2216656
91	0x3f1cd883	0.6126787
92	0xbeb4ca1d	-0.3531045
93	0x3f87eed6	1.0619762
94	0x3f372971	0.7154761
95	0x3f2574f3	0.64631575
96	0x3f06802f	0.5253934
97	0xc04d853a	-3.2112565
98	0x3d15ca1a	0.036569692
99	0x3e99c1d0	0.3003068
100	0x403a71f3	2.913205
101	0x40431fe9	3.0488226
102	0x3fd00b0e	1.6253374
103	0x3fc69fcb	1.5517515
104	0x40a0ad5c	5.021162
105	0x404c467c	3.191802
106	0xbfb8f1c0	-1.4448776
107	0x403e897f	2.977142
108	0x3f07efa5	0.53100044
109	0x4059996e	3.3999896
110	0x3e81b829	0.25335816
111	0xbf537075	-0.8259347
112	0x3e85305b	0.26013455
113	0x3f504b40	0.8136482
114	0xc041da6e	-3.028957
115	0x3ebe29da	0.37141305
116	0x402b1e22	2.6737142
117	0x40a1d86b	5.057668
118	0x407ea82d	3.9790146
119	0xbf243c9f	-0.64155
120	0x3f9ea02c	1.239263
121	0x407465ca	3.8187127
122	0x3f2b2f1e	0.6686877
123	0xbdb4f7aa	-0.08836301
124	0x3ea84a45	0.32869163
125	0x4046c9ed	3.1060746
126	0x4010fd20	2.2654495
127	0x3f2f71aa	0.6853281

cls_head.1.running_var f4 [128]
0	0x409a44a6	4.82088
1	0x40f41cee	7.6285315
2	0x40f802bb	7.7503333
3	0x40ca267b	6.3171973
4	0x410e1a29	8.881387
5	0x40939540	4.611969
6	0x419fa7a2	19.956852
7	0x4148980e	12.537123
8	0x412c9e5d	10.788663
9	0x41acdf88	21.609146
10	0x4130d642	11.052309
11	0x407c24d0	3.9397469
12	0x41897846	17.183727
13	0x41c5aa0b	24.708029
14	0x41988d67	19.069044
15	0x414425ba	12.259211
16	0x41766b74	15.401234
17	0x41f85d2c	31.045494
18	0x4160a54a	14.040354
19	0x41141bdb	9.256801
20	0x412a5c05	10.647466
21	0x412ecf40	10.925598
22	0x41aa3b0f	21.278837
23	0x413b18ae	11.693525
24	0x4115c5d8	9.360802
25	0x410c228b	8.758433
26	0x418ddf56	17.73405
27	0x41696ce4	14.589085
28	0x4129fcec	10.6242485
29	0x4113d3d0	9.239212
30	0x419ea5ee	19.83102
31	0x40f8b83c	7.7724895
32	0x41c9710a	25.180195
33	0x4186cdae	16.85043
34	0x41d7bbf2	26.96677
35	0x406e5e94	3.7245226
36	0x414d64ee	12.837141
37	0x411234ec	9.13792
38	0x419d66d9	19.675219
39	0x41968ae0	18.81781
40	0x41476d9e	12.464262
41	0x4134d1c0	11.3012085
42	0x4196b1ae	18.836758
43	0x417b3aba	15.701838
44	0x4189e480	17.236572
45	0x412ad4e1	10.676972
46	0x41205160	10.019867
47	0x41634177	14.203483
48	0x40de9648	6.955845
49	0x41a148a6	20.160473
50	0x418ae167	17.36006
51	0x418a1741	17.261354
52	0x41e5f1f2	28.743137
53	0x40f2a2ee	7.582389
54	0x41b590ce	22.695705
55	0x4096c1d4	4.7111607
56	0x40fac550	7.836586
57	0x41ac09f8	21.504868
58	0x41038966	8.221045
59	0x418be6f9	17.48778
60	0x411c2815	9.759786
61	0x40faf1eb	7.842031
62	0x41574f47	13.456855
63	0x41ae3ce0	21.779724
64	0x41011595	8.067769
65	0x418234c8	16.275772
66	0x41c2cb2e	24.349209
67	0x410bb2a0	8.73111
68	0x41822b47	16.271132
69	0x4152b99c	13.170315
70	0x413c5ea2	11.773104
71	0x40923ed2	4.5701685
72	0x41789552	15.536455
73	0x40a6d49d	5.213454
74	0x417ef276	15.934195
75	0x41628a4e	14.158766
76	0x413a8f24	11.659946
77	0x415e0c0d	13.877942
78	0x4199962c	19.198326
79	0x418c707a	17.55492
80	0x40f7105e	7.720748
81	0x40feac39	7.9585233
82	0x41dcf744	27.620735
83	0x41420874	12.127064
84	0x4163ecfe	14.245359
85	0x4169a199	14.601953
86	0x4119dac3	9.615909
87	0x41440662	12.251558
88	0x41c7ac8a	24.959248
89	0x411197cd	9.099561
90	0x412c8668	10.782814
91	0x40d3d96d	6.620291
92	0x41749806	15.287115
93	0x4116051b	9.376246
94	0x4185b173	16.711645
95	0x40f3d1b4	7.6193485
96	0x414b22ac	12.695965
97	0x4198660b	19.049826
98	0x41a200cb	20.250387
99	0x415b5b3d	13.709775
100	0x40e9831d	7.297255
101	0x416dd8d3	14.865436
102	0x410d9cfb	8.850825
103	0x41998992	19.192173
104	0x415e8495	13.907369
105	0x4124139e	10.254789
106	0x415a9d9e	13.663481
107	0x4087f837	4.2490497
108	0x40d3ecda	6.6226625
109	0x410edcec	8.928936
110	0x42248b85	41.13625
111	0x41570602	13.438967
112	0x413e8cd8	11.909386
113	0x4197335d	18.90008
114	0x414bdaf8	12.740959
115	0x417facd7	15.979697
116	0x414b205f	12.695403
117	0x4156acb4	13.417164
118	0x418c4785	17.534922
119	0x417676cc	15.404003
120	0x4116973a	9.411921
121	0x4125ed0d	10.370374
122	0x410a1e4e	8.632399
123	0x418ad853	17.355627
124	0x40add8cd	5.432715
125	0x41107cea	9.030497
126	0x4129111f	10.56668
127	0x40fcd5c1	7.901093
