notebooks/pierre/all_outputs/mtl_cnn.pt (torch, 783948 bytes, 26 tensors)

shared.0.weight f4 [32, 3, 3, 3]
00000000: a808 5f3d c214 2a3e 91a2 1a3e aa38 26be
00000010: ecb8 8f3d 5ba5 45be dbbc 43be dc43 2bbe
00000020: 4f66 2a3d db3d 1b3e 0935 513d 7af1 3b3d
00000030: 0f78 bd3c 5486 e73d 6ce3 28be 8184 e73c
00000040: dc5f 5e3c 962c 52bd b210 483c 37c5 813c
00000050: 75d0 82ba 3172 843d 4d2b c4bd 1225 b9bc
00000060: 2a01 cdbd d277 2b3e e465 363d a352 2b3e
00000070: 7b6e 1bbd ba36 073e 8d0e 02be 42d5 913d
00000080: 1000 68be e102 5d3e 47c3 1dbc 3b7e 2d3e
00000090: 39ff a73d 36a0 19be 1ee9 613e 5e9c f03d
000000a0: 3df6 fdbc 2fc3 6b3d 5865 103e 5f58 333c
000000b0: ba0d 173e 48f6 ef3d 74bc fa3a 5505 17be
000000c0: b946 14bc b3b8 003d 751f 7f3c a00e fc3d
000000d0: f754 a23d 3e8d 0a3e 41bf 753c 2d14 81bd
000000e0: 375c a93d 4dd8 e93b 7841 efbd 6818 93bd
000000f0: 9453 453d 2f86 213e ce0e a0bd 4650 4b3e
00000100: 9768 08bc 17a2 563e 2009 c4bc 3b08 003e
00000110: db30 6a3e aa18 5e3d 9bf6 223e fd55 33bd
00000120: 538f 49be 9b46 f9bd 3823 00be 4e46 ffbc
00000130: 6283 c3bd 25e0 16be 7ead f2bb bdb6 e3bd
00000140: 80e6 1c3e c2f1 e4bd d27b 23bd 1fed 2fbe
00000150: d68a 2cbe 082a 913d 4dde 3dbe 416d c53d
00000160: ed34 d8bd 1b29 4a3d 13e7 2b3e 6701 b9bd
00000170: bfbf 573d 600d 3dbe 4bc9 1b3d 640a f9bd
00000180: eed1 aebd 142b 113e 1d20 48bd 55ee f0bd
00000190: c73b cbbd e9de b6bd d99e 0b3e 5e72 e0bd
000001a0: 71d0 edbd f5ae 5abd b0c6 8bbd 6c01 25bd
000001b0: aa35 29be 594b e2bd 9cda 02be a69e bebd
000001c0: 60b2 93bd a283 ecbd 5c67 fbbd 1dd5 dcbd
000001d0: ee66 21be 5485 3abd 59d0 1e3b 34c2 cfbd
000001e0: a9d6 423e 56a0 253e 1984 7b3c 3729 033e
000001f0: ec03 33bd 6503 eabc 4ec5 fd3d 2a0e 0b3e
00000200: 01af 82bd ccfe 00be fae4 09be 2c93 14be
00000210: 30a2 1cbe 708a 363e 3369 9bbd a445 06be
00000220: f7e7 dabd 3f89 2bbd 57e4 0abe 25bc 3c3e
00000230: aab3 e83d 35c7 d6bd 1ee5 a03d 2a44 cdbd
00000240: 7325 853d e7ae 37be 8e0a 963d 6931 0a3d
00000250: 9b14 6d3d 7a6a 043e d102 053e da2a d6bb
00000260: ef19 fe3d e8b1 2ebe ea67 82bc 891a a2bd
00000270: 4c0c 71bc 9fba 023e 3c6c 79bd e2ab 2f3e
00000280: 7c4f a63c 32b3 cc3d 6d85 383e bc92 f33d
00000290: a314 453e f3f3 0fbd 5f10 d13d 7758 623e
000002a0: 397a cbbd aec9 21be 6a47 233e 3594 473d
000002b0: ab0a 263e c2f0 d13c ac70 1dbd bf66 ae3d
000002c0: 52a1 e6bd b2ef b9bd cdca 413e 9806 143e
000002d0: 407d d23d f080 adbd e47f 9fbd defe a83d
000002e0: 33c0 e53d 5bb8 7bbd 82b8 4fbb 5ab5 a8bd
000002f0: be3c 19bd d971 57bd 67f2 dfbd bd42 04be
00000300: 742a 9fbd 8bf5 3bbe b073 6bbd f4e0 4f3d
00000310: bdd9 51be b8c6 5bbd 4f0c 11be bd64 33bd
00000320: bab9 08be e6d9 fe3d c9ac 33bd b44f 04be
00000330: 02c0 06be 4698 ca3d 8dd0 24bd 7f2d 9f3d
00000340: 6552 83bd 00ad 893d a5a1 2e3e bb05 0f3e
00000350: a384 003e f987 28be 6e4e 133e 0800 303e
00000360: 8d2c 2bbe 0c44 243d 97c8 e13c 0158 f1bd
00000370: a83b 2c3e 6240 11be a326 e13d 05c1 233e
00000380: 3e99 29bc a915 b63c cb02 aabd c819 ea3d
00000390: c593 f63d 48ee 0e3e 8b81 0bbe 3ec5 01be
000003a0: 2aa5 e53d 61cd 9b3b 74d1 f4bc 28d3 87bd
000003b0: 9f30 633d c08c 80bc 3609 ecbc 5291 8fbd
000003c0: 1e7c f83c 1805 033e b042 40bb 5478 d5bd
000003d0: c1d5 adbc 32d9 7f3d 2eb1 e33d f7d6 1ebe
000003e0: 67c8 423e dd20 813d 031f ed3c 76ed a2bc
000003f0: 0180 0b3e 436a 213e 2b2c b03d ac2a 6cbd
0.054451615 0.16609481 0.15101077 -0.16232553 0.07017693 -0.1930136 -0.19115011 -0.16725105
0.041601475 0.15160315 0.05107597 0.045884587 0.023128537 0.11304918 -0.16493005 0.028261425
0.013572659 -0.05131205 0.012211012 0.01584111 -0.0009980338 0.06467093 -0.095785715 -0.022600684
-0.10009988 0.16744927 0.044530764 0.16730742 -0.03794716 0.1320447 -0.12700863 0.07120754
-0.22656274 0.2158313 -0.009629077 0.16942684 0.08202977 -0.15002522 0.22061583 0.11748575
-0.031001205 0.05755919 0.1410116 0.010946362 0.1475133 0.11716896 0.001912965 -0.14748128
-0.009050065 0.031426143 0.015571465 0.12307477 0.07926362 0.13530442 0.014999212 -0.06302676
0.08269542 0.0071363808 -0.11682409 -0.071823895 0.04817541 0.15773843 -0.07815324 0.1985484
-0.008325717 0.2096027 -0.023930132 0.1250314 0.228702 0.05422274 0.15914385 -0.043783177
-0.1968358 -0.1217167 -0.12513435 -0.031161454 -0.09546544 -0.14733942 -0.007405936 -0.11118839
0.15322304 -0.11178924 -0.039913006 -0.17180298 -0.16849837 0.07088095 -0.18541832 0.09639979
-0.1055697 0.049355607 0.16787367 -0.090334706 0.052673098 -0.18462133 0.038033765 -0.12160185
-0.08536135 0.14176589 -0.04885875 -0.11764208 -0.09923511 -0.089292355 0.13634814 -0.10959314
-0.11612023 -0.05338951 -0.06825006 -0.04028456 -0.16524377 -0.11049528 -0.12778705 -0.093076035
-0.07211757 -0.115485445 -0.122755736 -0.10782836 -0.15761921 -0.045537308 0.0024233072 -0.10144463
0.19027199 0.16174445 0.015351319 0.12808691 -0.043704912 -0.028566072 0.123911485 0.13579622
-0.063810356 -0.12597197 -0.13466254 -0.14509267 -0.15296245 0.17826247 -0.075884245 -0.13112503
-0.10688775 -0.041878935 -0.13563667 0.18431146 0.11362393 -0.104872145 0.07856201 -0.10022767
0.065012835 -0.17937814 0.07326232 0.033738527 0.05788098 0.12931243 0.12989356 -0.00653587
0.1240729 -0.17060053 -0.01591869 -0.079152174 -0.014712404 0.12766503 -0.060894236 0.17155412
0.020301573 0.09995116 0.18019648 0.11893222 0.19246154 -0.035144757 0.10208201 0.22104059
-0.099354215 -0.15799591 0.15945211 0.048725326 0.16215007 0.025627498 -0.03843753 0.08515691
-0.11261238 -0.090789214 0.18925019 0.1445564 0.10277796 -0.084718585 -0.07788065 0.08251737
0.112183 -0.061455112 -0.0031695669 -0.08237715 -0.037411444 -0.052598808 -0.109349065 -0.12916084
-0.07771769 -0.18355386 -0.057483375 0.05075164 -0.20493217 -0.05365631 -0.14164852 -0.043797243
-0.13352099 0.124439046 -0.043865953 -0.1292103 -0.13159183 0.09892325 -0.040237952 0.077723496
-0.064122 0.0672245 0.1705385 0.1396703 0.12550597 -0.1645812 0.14385387 0.17187512
-0.16716214 0.040103957 0.027561469 -0.117843635 0.16819632 -0.14184716 0.109936975 0.159916
-0.010351477 0.022227125 -0.08301314 0.11430699 0.120399036 0.13958085 -0.13623635 -0.12672898
0.11213143 0.0047547077 -0.029885031 -0.06632072 0.05546629 -0.015692115 -0.028812986 -0.070101395
0.030332621 0.12794912 -0.0029336624 -0.104233414 -0.02122009 0.062462993 0.11117779 -0.1551169
0.1902176 0.06305096 0.028945452 -0.01988862 0.13623048 0.15763192 0.08602174 -0.057657883

shared.0.bias f4 [32]
00000000: d1a9 35be d7d3 323c 9ab2 2f3e 426f 83bc
00000010: 753a 94bd 187f 4abe 3d59 c03d 59cf 563d
00000020: e2f9 19be 969a 09be 7cf6 21be 4301 2cbd
00000030: 5a66 a13d 67ba 3a3e b9c3 32bc 5cb6 f3bd
00000040: 76e9 64bd e609 a33c ae68 b2bd df2d 37be
00000050: 7d15 36be faff a0bd e89c 16be 3191 22be
00000060: f772 0d3d 8f6d 18be f051 ffbc 8c86 d5bd
00000070: 5e77 b73d 7d1a 3dbe 75f0 403e d64b 84ba
-0.17740561 0.010914764 0.17157975 -0.016044263 -0.07237712 -0.19775045 0.09392021 0.052443836
-0.15036729 -0.13437876 -0.15816683 -0.04199339 0.0788085 0.1823517 -0.010910922 -0.11900017
-0.05588671 0.01990218 -0.08711372 -0.17888592 -0.17781635 -0.07861324 -0.14708292 -0.15875699
0.034533467 -0.14885543 -0.031167 -0.104260534 0.08958314 -0.18467136 0.18841727 -0.0010093402

shared.1.weight f4 [32]
00000000: 5bb1 8a3f 65f5 6a3f c3d9 803f a42b 7c3f
00000010: c1a2 7a3f b3ea 873f 5ecd 6f3f 9430 813f
00000020: 0c5e 7f3f 2d59 813f a943 743f 7355 8a3f
00000030: 7a06 7e3f 55b5 743f 8ceb 5d3f 529f 853f
00000040: c859 813f 6379 723f 3b8c 8d3f fe07 793f
00000050: 3c5b 803f 2a3c 6f3f 58cc 7b3f 2d54 843f
00000060: 87f9 743f 4ce1 793f b414 863f eb48 7e3f
00000070: 5eb9 7b3f 70b4 783f b1cd 753f 95bf 783f
1.0835375 0.9178069 1.0066456 0.9850409 0.9790459 1.06185 0.9367274 1.009295
0.9975288 1.0105339 0.9541574 1.0807327 0.9922863 0.9558919 0.8668754 1.0439246
1.0105524 0.9471647 1.105842 0.9727782 1.0027843 0.9345118 0.9835868 1.0338188
0.9569325 0.976094 1.0475068 0.99330014 0.9832972 0.97150326 0.96016985 0.9716733

shared.1.bias f4 [32]
00000000: 2ce5 47bb ba2b 8bbd 561f 90bd 1c53 fcbc
00000010: b083 73bd 11f3 afbb de78 79bd 79af 09bd
00000020: c5b9 b23c 3335 0cbd b9b5 b83c 0dbd 41bd
00000030: a130 a3bc 42f3 01be adff aabd 4fde 7cbd
00000040: ab83 16bd bf63 1fbd 9b01 1fbd 033c 37bd
00000050: 703b 023c b4a3 88bd fd16 2dbd 8c1c 8c3d
00000060: a165 78bd d406 74bd f9e5 0cbc ce14 d63a
00000070: 07bd a0bd 5a11 78bd 61d8 7abd e9c5 97bd
-0.0030501587 -0.067954496 -0.07037227 -0.030801348 -0.05945176 -0.005369552 -0.060906284 -0.03361461
0.021817097 -0.034230422 0.02254759 -0.047299433 -0.019920649 -0.12690452 -0.083495475 -0.061735447
-0.036746662 -0.038913485 -0.03881989 -0.044734966 0.007948741 -0.06671849 -0.04225825 0.068413824
-0.060643796 -0.059576824 -0.008599752 0.0016333105 -0.07848554 -0.060563423 -0.06124151 -0.07410795

shared.1.running_mean f4 [32]
00000000: 59fc 2dbe 4d5a e8be 2704 793d 18b7 e03e
00000010: bdd9 c93e b30d 82be 9b6f b2be 72cc d03e
00000020: 9e2b 7dbe dcc1 6abe d48f 3ebd 9ef1 93bd
00000030: cd1a bf3e 9760 e83d 6d42 d4be 4967 1dbe
00000040: 6b01 b3bd e09f 133e 7a54 1ebe bb94 78be
00000050: 41e6 88be 8e76 a1be 0a3c ef3e c59b 11be
00000060: ec3d 0bbd f11d 1c3f 08ee d1bc c235 adbd
00000070: 84c0 053f aad6 40bd c199 ff3d 6873 6c3e
-0.16990794 -0.45381394 0.060794976 0.4388969 0.39423934 -0.25401077 -0.34850773 0.4078098
-0.2472367 -0.22925514 -0.046523884 -0.07223819 0.37325135 0.11346548 -0.4145693 -0.15371431
-0.08740505 0.14416456 -0.15461913 -0.24275486 -0.2673817 -0.31535763 0.46725494 -0.14219578
-0.0339946 0.60983187 -0.025626197 -0.08457519 0.5224688 -0.04707972 0.12480498 0.23090899

shared.1.running_var f4 [32]
00000000: 8135 b93b 41cb b23d ff68 ab3b 4880 b43d
00000010: 3057 c73d e218 e53b b085 a33d 3f9f 493d
00000020: c946 da3b 4117 703b be49 323c 2624 c83b
00000030: 5c1a 1d3d 87f0 9f3b e8a8 963d d5d6 193c
00000040: 1918 953b d023 293c 4aae e63b 9bfb e13b
00000050: 867b 9c3b caaa 0c3d 6341 1b3e 4d19 c13b
00000060: 79a6 eb3b e06f 723e 90f5 323b 5b4f fe3b
00000070: 5085 ad3d bee7 313c b720 f73b 4e6d cf3c
0.00565213 0.08730174 0.0052310224 0.0881353 0.097334266 0.0069914917 0.07984483 0.049224135
0.0066612703 0.0036634954 0.010881839 0.006107825 0.038355216 0.004880968 0.07356435 0.009389599
0.004549992 0.01032348 0.00703982 0.006896449 0.0047754673 0.034342565 0.15161662 0.0058929087
0.007191476 0.2367549 0.0027307011 0.0077609248 0.08472693 0.010858474 0.0075417417 0.025320675

shared.4.weight f4 [64, 32, 3, 3]
00000000: a890 a3bd 53bd 35bd 184c a8bd e4ec 773c
00000010: 1c36 80bd 698d b73c 54d9 a63d 0b35 1c3c
00000020: f16e 93bb b103 61bd 6b8d cd3c 4ce8 66bb
00000030: dd45 0fbc d29d f33c 08d2 023d f438 d4bb
00000040: 199d 83bd 4e15 77bd e8be 8ebb 979b 3abd
00000050: ea36 2bbd 4237 2fbd 1fab ebbc 2d96 613d
00000060: 2330 1e3d 6206 043d 988e df3c 8b1a 803d
00000070: cd1d 2b3c 2c4a f43b 04a1 723d e5af 483d
00000080: 49f3 0bbd 0a62 023d f2f4 dc3c a01f 553d
00000090: ec65 9c3d dfe8 363d 279e b93c b94d 643d
000000a0: 08c0 883d be74 c83c 17bb ef3c e979 a03b
000000b0: 3a4a 183d 10a4 b23c 8ad7 86ba 9b62 78bd
000000c0: 2803 7b3c f4d0 2fbd 5b48 86bc 2670 8bbc
000000d0: b97c 84bd de6f 18bd ac0b fbbb ee53 c03c
000000e0: 7b8b 14bd 6e1a 84bc ef4f 933c 1ebe 0dbd
000000f0: db82 c23c 7877 33bd 793a efbc 0d67 f4bc
00000100: affd 063c 4b3c c5bc 1268 5e3d 83dc 2f3c
00000110: 6b3f ca3c 089c 8e3d 077c 90bc 182a ad3d
00000120: 96c9 54bc c07a b13b 46dc 8b3b ffdb 93bd
00000130: b02a 69bd ad34 b9bc 8d71 dfbc cfcf 69bd
00000140: e206 0bbd f246 863c d1cc b3bc 83f7 dc3c
00000150: 8e70 dabb 55cf 98bc 7fab 8b3a de07 c1bc
00000160: beb7 923c 6c47 623d 0bfa 2ebd 645c 51bd
00000170: e335 1d3a 5915 aabc ccd6 753b 448e 273d
00000180: 9b0d aabc 74f7 21ba de2a 053d 5a59 12bd
00000190: 15e9 02bd 77c4 a53a 4699 20bd 0003 c6bc
000001a0: d16a 6bbc fdf0 55bd 8447 d0bc d949 c5bd
000001b0: c822 063d 5a20 803d 4431 27bc cc5d 2dbd
000001c0: 955a e93c 187c 35bc 5ca2 8e3d 85f7 cabc
000001d0: 8586 a73d 57aa 913c 81b0 78bd 9451 b03c
000001e0: 3a09 24bd f46d 91bc 5eac 20bd 11a3 7a3c
000001f0: 4cdf cebc 9176 d9bb e9c5 0a3d 8a50 0c3d
00000200: 09d1 313d 1765 3cbd c59f ebbc a334 4dbd
00000210: 0c01 b6bc 7e79 b9bc 7f5a 32bd bde3 c2bd
00000220: fa5b 20be 66e9 d0bc 9f66 cebd a3a1 42bd
00000230: 740c 97bd ef00 84bc ee87 96bd d34c 50bd
00000240: f99f 28bd 9c2a aabd 4874 3cbd 4b5c 05bd
00000250: 59f2 2dbd d922 91bd 1694 86bd 81b3 febc
00000260: ef17 21bd cf79 9ebc cd42 84bc 1f31 38bd
00000270: 548f ae3c 126a e53c b6b0 753d 6bbc 663d
00000280: 87dc b23b 5b22 923b 6e31 a9bd 9f38 11be
00000290: d768 e5bd d83d c4bd 1800 98bd 032c 59bd
000002a0: 6489 0f3c 546b 30bd 196c ddbd 92b8 9b3c
000002b0: 64a7 903c 7825 cc3b 2c73 c1bc 1ac0 813d
000002c0: 272a fa3b 405b f4bc 8926 72bc 7150 60b9
000002d0: 0192 bebd 6d21 e13b edc8 6bbc 837c 9fbd
000002e0: 8822 86bc 2a88 bdb9 d2f0 00bd 0a23 1cbd
000002f0: e7f2 c5bc 6d13 60bd b6f6 e0ba 8827 43bd
00000300: f416 adbc 9bd1 00bc 822f d2bc 7046 47bc
00000310: 528c 3dbd 6ad6 e1bc 5a05 86bc 33c9 c23b
00000320: d641 4f3d f8c7 ce3a 2852 63bc 8947 3ebc
00000330: f4c3 8c3d 66a6 443d 6b80 b6bc 4ae9 a9bd
00000340: 27fe c4bd 9670 fdbc 7fcb febd 277b f0bd
00000350: 89de fcbc af73 bfbd 249e e3bd 60a5 19bd
00000360: 9737 323d 026e c23c fde8 abbc 0e34 cdbc
00000370: f030 403d 9795 bcbc 05be 2e3c def2 24bd
00000380: b41c 263d 06a7 7f3d 4f4e 9cbc 9b20 5b3d
00000390: 52cc 5b3d fb8a 923d 52d4 a5bc 83ce 163d
000003a0: 022c b13a fcef 7c3d a921 a5bd 96a0 84bd
000003b0: d328 b2bd 3809 2bbb 5f73 95bd 3d94 0fbd
000003c0: 2341 bebd 0631 16bd 9f9c a6bd fbdc 41bc
000003d0: c108 38bd 6b4a 44bd 7c57 adbc ffc8 a4bd
000003e0: 420b 09bd b24e 8e3c 4bb9 0ebd e73c 21bd
000003f0: ef37 debc fd85 df3c bc9d 843c c45c 193d
-0.07986575 -0.044370007 -0.08217639 0.015132163 -0.062603205 0.022406297 0.08146921 0.009534131
-0.004499309 -0.05493516 0.025091847 -0.0035233675 -0.008744684 0.02973834 0.031938583 -0.006476516
-0.064264484 -0.060323052 -0.004356254 -0.04555854 -0.041800417 -0.042777307 -0.02876812 0.05507486
0.038620126 0.03223265 0.027289674 0.06255063 0.010444117 0.007455131 0.059235588 0.04899587
-0.03416756 0.03183178 0.026972268 0.052032113 0.076366276 0.044655677 0.02265842 0.055738185
0.06677252 0.02446973 0.029264016 0.0048973453 0.037180163 0.021806747 -0.0010287624 -0.060640913
0.015320577 -0.042923883 -0.016391924 -0.01702125 -0.064691015 -0.03721606 -0.0076613035 0.02347752
-0.03626583 -0.016125884 0.017982451 -0.034605138 0.023744037 -0.043815106 -0.029202687 -0.029834295
0.008239194 -0.024076601 0.054298468 0.010733726 0.024688443 0.06963354 -0.017637266 0.08455294
-0.012987515 0.0054162443 0.004268202 -0.07219695 -0.056925476 -0.022608126 -0.027275825 -0.057082947
-0.03394211 0.016391251 -0.02194825 0.026973492 -0.0066662496 -0.018653551 0.0010655968 -0.023563322
0.01790988 0.055243894 -0.04271893 -0.0511135 0.00059971045 -0.020762132 0.0037512062 0.04090716
-0.02075844 -0.0006178536 0.032511584 -0.035729744 -0.031960566 0.0012647052 -0.039208673 -0.024171352
-0.014368729 -0.052231777 -0.025424726 -0.09633226 0.032748014 0.062561706 -0.010204617 -0.04232578
0.028485576 -0.01107695 0.06964561 -0.02477623 0.081799544 0.01778142 -0.060715202 0.021523274
-0.04004786 -0.017752625 -0.039226882 0.015297667 -0.02525296 -0.0066364487 0.033880148 0.034256496
0.043412242 -0.045994844 -0.028762707 -0.050099026 -0.022217296 -0.02264094 -0.043543335 -0.09516094
-0.15660086 -0.025501918 -0.10078167 -0.04751743 -0.07375422 -0.016113726 -0.07350145 -0.050854515
-0.041168187 -0.08308908 -0.046009332 -0.03255872 -0.04246745 -0.07086725 -0.06571214 -0.031091454
-0.039329465 -0.019345192 -0.016145134 -0.04496872 0.021308579 0.02800468 0.059982978 0.056332033
0.005458418 0.004459662 -0.08261381 -0.14181755 -0.11201637 -0.09582108 -0.07421893 -0.05302049
0.008760784 -0.043071106 -0.108116336 0.019008908 0.017657943 0.0062300526 -0.023614489 0.063354686
0.0076344195 -0.029828668 -0.014779695 -0.00021392271 -0.09305192 0.0068704397 -0.014391166 -0.077874206
-0.016373888 -0.0003615034 -0.031479664 -0.038119353 -0.024163676 -0.054706026 -0.0017163369 -0.04764512
-0.021129109 -0.007862474 -0.02565742 -0.01216279 -0.046276398 -0.02756806 -0.016359974 0.005944395
0.050599895 0.0015776148 -0.013874568 -0.011613735 0.068733126 0.048010252 -0.022278031 -0.082964495
-0.09618788 -0.030937474 -0.124411575 -0.117422394 -0.030867832 -0.09348237 -0.11114147 -0.03751123
0.043510046 0.023734096 -0.02098512 -0.025049236 0.04692167 -0.023020549 0.010665421 -0.04027068
0.040554717 0.062415145 -0.01908031 0.053497892 0.053661652 0.07155415 -0.020242844 0.03681804
0.0013517144 0.061752304 -0.08063061 -0.06475942 -0.08699193 -0.0026098024 -0.07297396 -0.03505348
-0.092897676 -0.036667846 -0.08135342 -0.011832471 -0.044930223 -0.047922533 -0.02115988 -0.080461495
-0.033458002 0.01737151 -0.034844678 -0.03936472 -0.02712628 0.02728557 0.016188495 0.037441984

shared.4.bias f4 [64]
00000000: 5bdf 573c 2dfd e3bc 5622 1bbb 2108 063d
00000010: d4ab 07bd 7b3a 6a3d 8726 bd3b cd77 59bd
00000020: 72af 9cbc f169 673d cd9a a33c 8ddf c03c
00000030: 41dc 5dbd 6601 38bd b56a 0dbd fee2 5a3d
00000040: 364a 233d 79da 2ebd 7862 30bd 9d13 bd3c
00000050: 57c8 29bd 686a 29bd 13d3 abbb 2a51 79bc
00000060: 842c f23c 519f a03b 9a2a 82bb 430b 553d
00000070: 634e 5a3d 2fec 0a3c 4766 883c eeb6 6dbd
00000080: 5d43 71bc 2896 343d 4eea 4abc 9b24 57bd
00000090: 1ec9 bf3b 0797 393c f822 bcbc 9f83 80bc
000000a0: 66d9 2a3d f4ab abbc 5c07 f13a 3af8 6abd
000000b0: f9b8 4c3d abb0 263d 706a 2d3d 2f12 313c
000000c0: cf2c 4ebd c480 2f3b 1ff7 c73a 074e 903c
000000d0: ccb0 da3b 6476 37bc be08 0e3b 08d9 dabc
000000e0: fda5 673c 0bc0 3abc 8cf3 293d 1957 a53c
000000f0: c28e 663d 0460 26bd 2027 23bc 5d12 393d
0.013175811 -0.027830685 -0.002367159 0.032722596 -0.033122852 0.057184678 0.005772415 -0.053092767
-0.019126628 0.056497518 0.019971276 0.023544097 -0.05416513 -0.04492321 -0.034525592 0.053439133
0.039865695 -0.04268882 -0.043062657 0.023080641 -0.041450825 -0.041361243 -0.005243668 -0.015217105
0.029562242 0.0049018045 -0.0039723637 0.052012693 0.05329741 0.008479162 0.016650332 -0.058035783
-0.014725533 0.044088513 -0.012384964 -0.052525144 0.0058528325 0.011327512 -0.022965893 -0.015687762
0.041711234 -0.020956017 0.0018389034 -0.057365634 0.04998109 0.040695827 0.042337835 0.010807558
-0.0503357 0.002677963 0.0015256143 0.017615331 0.006673908 -0.01119766 0.0021672691 -0.026714817
0.014138696 -0.011398326 0.04149203 0.020183133 0.05628849 -0.04061891 -0.009958059 0.04518353

shared.5.weight f4 [64]
00000000: ac68 843f 203d 873f 8a85 7b3f 7252 6a3f
00000010: 3e9a 713f 1006 823f 9e51 7c3f 5b90 813f
00000020: bda0 863f f550 793f 0c79 7d3f c737 843f
00000030: d14d 853f b9ed 733f 5f86 803f d52c 823f
00000040: 05b2 743f 0dd5 863f 122b 813f 0cc4 7c3f
00000050: 3c76 813f 5ee6 873f 409f 7b3f 43f8 883f
00000060: 2e95 683f f775 773f 4555 803f 2750 763f
00000070: 91ee 7f3f 5635 763f 95b3 733f 143f 803f
00000080: cf50 7e3f a1c0 813f db3a 813f bdb2 723f
00000090: 2d95 7c3f ea36 7b3f a20d 813f 0626 823f
000000a0: a5e4 7c3f 2a8f 6f3f f9a5 703f fcbf 7f3f
000000b0: 6cbe 893f 736b 883f e3e5 813f 3f33 7f3f
000000c0: c7c8 793f d628 803f 5bd5 7c3f fd6e 7b3f
000000d0: 2fd1 803f 0211 833f a3c8 883f 6224 743f
000000e0: f7f7 753f da73 823f 4ff8 843f dcd5 773f
000000f0: dc1a 7d3f 2642 763f f337 813f b933 733f
1.0344443 1.0565529 0.9825064 0.9153205 0.9437598 1.01581 0.9856204 1.0122179
1.0517803 0.97389156 0.9901283 1.0329522 1.0414373 0.9528461 1.0041007 1.0169932
0.95584136 1.0533768 1.0091269 0.98736644 1.0114207 1.0617177 0.9828987 1.0700763
0.9085263 0.96664375 1.0026022 0.9621605 0.999734 0.96175134 0.95195895 1.001925
0.99342054 1.0136911 1.0096086 0.9480398 0.98665124 0.9813067 1.0082285 1.0167854
0.98786384 0.93577826 0.94003254 0.9990232 1.0761237 1.0657791 1.0148281 0.9968757
0.97571987 1.0012462 0.98763055 0.9821623 1.0063838 1.0239565 1.068623 0.95368016
0.9608149 1.0191605 1.0388278 0.968107 0.9886911 0.96194685 1.0095199 0.950008

shared.5.bias f4 [64]
00000000: 5296 a9bb 9264 58bc 6b87 feba 14f0 2cbd
00000010: a362 16bb d951 4fbc 9d16 0e3c 71f5 b3bc
00000020: bbe6 fcbb a54c 0f3d fa55 8c3c 923c 39bb
00000030: efff 0b3d fa0a 7ebd d374 85bd d98c 62bc
00000040: 6e9f 023d daa6 493c c35f bb3c 2ba6 633c
00000050: 70e2 d23c 4786 2a3c 82b5 7d3c ba19 2b3b
00000060: e728 a1bd 6e43 0f3c 0656 9fbc cd9e d2bc
00000070: a98f 9fbd b031 003c 583d 023d 9d5c 8d3b
00000080: 6c0b 8dbc 6a83 823c e6c9 c43c cbdc aa3c
00000090: 094b 07bc feb3 fdbc 8e66 f7bc 8c7c fe3c
000000a0: 8c36 8a3a 8722 92bd 5643 7e3a 4634 c43b
000000b0: 3346 283b a027 dabb 53bc 81bc 8eae a4bd
000000c0: f028 65bc 056d d53b 17de cd3a ebdf 1abd
000000d0: 1b18 84ba f8d4 86bc 8e1d 06bc e82a 2fbc
000000e0: 489d 06bc 6dfb d43c e312 55bc 09e8 aebd
000000f0: 99af 043d ca7c a03c e390 6bbc 5c89 acbd
-0.0051753903 -0.013207572 -0.001941902 -0.042221144 -0.0022946976 -0.012653791 0.008672384 -0.021967622
-0.007717935 0.034985203 0.01713084 -0.0028264862 0.034179624 -0.062022187 -0.06516423 -0.013827526
0.031890325 0.012307847 0.022872811 0.013894598 0.02574274 0.010407991 0.015485169 0.0026107864
-0.0786913 0.008744104 -0.019450199 -0.025710488 -0.07791073 0.007824346 0.031796783 0.004314019
-0.01721736 0.015931804 0.024022054 0.020857235 -0.008257636 -0.030969616 -0.03020027 0.031065248
0.0010544821 -0.07135492 0.0009699365 0.005987677 0.0025676608 -0.0066575557 -0.01583687 -0.08041106
-0.013986811 0.0065132403 0.0015706447 -0.0378112 -0.0010077985 -0.016458973 -0.008185757 -0.010691382
-0.00821621 0.025998795 -0.013004991 -0.08540351 0.032394025 0.019590754 -0.014377805 -0.08424637

shared.5.running_mean f4 [64]
00000000: d80a 0bc0 a722 20c0 f291 a8bf ff5f 173f
00000010: e968 adbd 831f 0a3f a23a bfbf d648 bcbf
00000020: 455b 1fc0 f604 9bbf ce97 4fbd 6dd8 01c0
00000030: 63e4 af3e dfc9 e7bd 8e76 06be 72cb f13e
00000040: 27fa 5abe e8e6 80be ccda 063e b5f5 313f
00000050: ea07 083f a4c5 01c0 4c5b 0b3e 6107 e7bf
00000060: 3490 9ebf aa3d 09be bdcb e9bf 38af 913f
00000070: 7ef6 953f 6691 d0bf 2e7d 86bf c2ea a8be
00000080: 605d efbd e6ff 02c0 5a72 98bf 1027 00be
00000090: c9a7 ddbf 05e5 883e b8cf 043f 54da f13e
000000a0: 5b38 9abf fc39 7f3e da0e 55bf 34b8 40bf
000000b0: f1ad 06c0 6940 0ac0 675d 52bf c6af 9a3f
000000c0: af7c 8abe 6c13 253f c49f f23e 2536 313f
000000d0: 828a d7bf 07a2 c03e 0e52 edbf fd99 84bf
000000e0: a6f4 4e3f 70fc 00c0 87f7 18c0 e59e 0a40
000000f0: 795c b03e c6ee a6be 4aa0 1b3e ebd0 ecbf
-2.1725368 -2.502115 -1.3169539 0.59130853 -0.08467276 0.53954333 -1.4939768 -1.4709728
-2.4899457 -1.2110889 -0.05068188 -2.0288346 0.34353933 -0.11317801 -0.13131163 0.4722553
-0.21384488 -0.25176167 0.13169402 0.69515544 0.53137076 -2.027688 0.13609046 -1.8049127
-1.2387757 -0.13402429 -1.8265301 1.1381598 1.1715848 -1.6294372 -1.0506952 -0.32991606
-0.11687732 -2.0468688 -1.1909897 -0.12514901 -1.7316829 0.26737228 0.51879454 0.47236884
-1.2048448 0.24924463 -0.83225787 -0.7528107 -2.1043665 -2.1601813 -0.8217377 1.2084892
-0.2704825 0.6448276 0.47387516 0.69223243 -1.6839144 0.37623617 -1.8540666 -1.0359493
0.80842054 -2.0154076 -2.3901079 2.1659482 0.3444555 -0.32604045 0.15197864 -1.8501257

shared.5.running_var f4 [64]
00000000: 367c 4441 c35b 5541 c47a 6040 5096 3f40
00000010: 5b4b 783f 961e be3f 0fa6 c63f 14c4 4840
00000020: 4c30 4e41 1ccd 0e40 d2c9 e13e ec81 0e41
00000030: 90ae 253f 5458 0740 ed4d 8a3f dee0 4b3f
00000040: adac 4b3f c04b ca3e a6d3 363f 0985 2a3f
00000050: 907e 253f f8f2 1541 c87f b93f 2ba7 0241
00000060: 6552 a23f 14c1 3d3f 4501 0241 57e2 8d3f
00000070: 201e be3f b94b d240 06ff 7a40 ec94 b23f
00000080: 25b5 fd3f 39fc 2341 8a17 0640 a977 f13f
00000090: ebc1 0041 548d dd3f 38b0 4b3f b6e0 203f
000000a0: 1eb4 8640 8c6b 283f 8759 593f 87ef 4e3f
000000b0: 65f9 3441 9954 4041 dbd2 0740 b23c 923f
000000c0: e96b ee3f 2c3d 133f de11 433f bd83 513f
000000d0: 882a 0041 af4d a53f 5d9d 0841 5e96 7b40
000000e0: 94cd 0f40 b412 9d3f b400 4641 7092 3440
000000f0: 6b48 fb3e 4dc1 9a3f 0246 0140 0ea4 ce40
12.280325 13.334903 3.507493 2.9935493 0.96989983 1.4853084 1.5519427 3.1369677
12.886791 2.231269 0.4409929 8.906719 0.64719486 2.1147661 1.0805031 0.79639995
0.7956036 0.39510918 0.714167 0.66609246 0.64646244 9.371819 1.4492121 8.1658125
1.2681395 0.7412274 8.12531 1.1084698 1.4852943 6.5717435 3.9218154 1.3951697
1.9820906 10.249078 2.0951867 1.8864642 8.047343 1.7308755 0.79565763 0.6284288
4.209487 0.65789104 0.8490223 0.8083424 11.310887 12.020654 2.1222446 1.1424773
1.8626682 0.57515216 0.7619914 0.8184164 8.010384 1.2914332 8.538419 3.9310527
2.2469225 1.2271333 12.375172 2.8214378 0.49078688 1.2090241 2.019898 6.457526

cls_head.0.weight f4 [128, 64, 3, 3]
00000000: 2a97 33bd fd2d 0dbd 133d 23bd 327a 71bd
00000010: 5534 62bd 105c d0bb 9eb6 1dbc f662 51bc
00000020: def5 f4bc 23ce ebbc 8a1e 4dbc f5e7 973c
00000030: 4a06 ffbc 42f6 68bc caf5 47bc 6fcf 26bd
00000040: d4d2 f6bc 73e1 2fbc 4ee4 8ebb ab3d 303d
00000050: bc49 bdbb 0c68 15bd 4608 15bd d428 07bb
00000060: 5ee8 153d 4adb 08bd d918 ee3c f77c 4d3d
00000070: f831 d7bc 0bfd 373d 47e3 153c 2284 b53c
00000080: fe30 c83c 22e8 773d 0db4 363d c99f 32bc
00000090: 80cf 163d 0651 4e3d 44f1 843d 67bd a03b
000000a0: 2b7f 463c a8da c63b e3e5 cb3b 5bd8 153c
000000b0: f994 2b3d 8207 553c 62e3 22bd 1428 2ebd
000000c0: 7f47 473d 5c35 85bd 82fe 64bd 6dd5 6b3d
000000d0: f851 b83c 1b7e 843c e6ef 2d3b 3b71 873c
000000e0: 446d 73bc caa7 563d 16dc 543d b465 c63a
000000f0: 2974 363c c143 7a3c 88b1 043c f51e 723d
00000100: 97a5 103d 19ec 063d 24fb 97bc 8dde b73c
00000110: cc82 ea3c d1cb 4cbb 5179 1c3d dd40 fdbb
00000120: b4b3 c73b 3003 26bd b5a8 0dbd 6459 92ba
00000130: 5574 c2bc afd7 03bd e222 12bd f25b c4bb
00000140: 3616 2d3a bd4e f3bb dd59 bdbb 7dc5 773b
00000150: c5d4 e13c edcc ec3c 83c4 d0bb 9b2e 453d
00000160: 49b5 ad3c 7399 be3c 1a4d 1dbc ec29 ff3c
00000170: 57ce 263d bb2d 883c de28 4ebc 04b9 28bc
00000180: f58b e13b c6ce e2bc 0db4 cfbc c472 c7bc
00000190: 86db 5cbd e02d 70bd cd49 ddbc 991b 74bd
000001a0: ecbf f2bb aa91 6dbd 26e2 4dbc 9f7c b1bc
000001b0: 7848 633d d105 7d3c 7d68 b73c 7e78 433d
000001c0: 47c3 2bbd 71e2 46bc 2a01 703d 548f c4bb
000001d0: 87ea 583d 5872 8fbb 65f4 03bd c300 10bd
000001e0: 3b4f 3cbc 9639 9db7 f2ec a03c 7d30 f13c
000001f0: 0d9b 013d 6326 743c 08bd f3bc b8a1 b63c
00000200: 9442 5ebb e1fe 733c 7db8 38bd cd74 883c
00000210: 8517 5a3d 08f1 c5bc 9380 d03b 062b 8f3c
00000220: a094 b13b 1ab6 0dbd bc04 f83b 65e3 3f3c
00000230: c4e7 19bd 183b 81bc 1e7f 1b3b 92c6 1f3d
00000240: 4406 73bc d9a1 9a3c 01ff 82bb 97fb 1d3d
00000250: aba0 08bc 84aa 0c3c 5493 cbbb c47c 93bc
00000260: 86ad 203d 118d 07bc 6cb9 a6bb 265d fabb
00000270: d7f6 21bc 3cfd e13c 1140 5fba ed61 6f3d
00000280: 3084 313d 02ac 123d 1c93 90bb 1688 303d
00000290: d0f3 ec3b 12f2 033c fb6c aabc 388b 0c3d
000002a0: d2eb 1c3d abeb 9fbc d3d7 403d d988 383d
000002b0: 143c a43c 4140 d83b e3c3 193d 0065 6ebc
000002c0: 7430 b33b 0cac df3c f512 a73c 27a0 493d
000002d0: b4a4 45ba 40d2 66bc 1eb5 393d 6a72 c13b
000002e0: ab56 65bc 16d9 9b3c 9ea3 a9bb 0697 a0bb
000002f0: 06fc 9c3c 0305 19bd 2395 2cbd 193f 9dbb
00000300: d750 ef3b ddd5 7fbd 056c 21bc 95ac edbc
00000310: 41ed 5ebc 2f91 1abd fed0 c7bc 9313 b73c
00000320: 9a6a 843d b698 53bc 568d 963c 6ad3 0e3d
00000330: 39b8 203b cad8 663d c0b8 8c3c f247 76bc
00000340: 46f2 503c 11c5 8abc 7304 713c a532 91bc
00000350: e47c f5bb 32c0 69bd 65ea 6dbd fe48 5a3b
00000360: 89d5 df3c 551f 9bbc b378 3a3b 8a24 e13c
00000370: dd4b d93b bb6b 0b3c 75ee 5f3d 1e6e c83c
00000380: 99c3 353d b643 ffbb cdf6 fd3c 6f17 573d
00000390: db41 593c 9adc 57bc 64e1 65bc 1703 403d
000003a0: fa75 83bc 60c0 fbbb bcf5 07bc bb34 06bc
000003b0: 1352 8abc 40ce a73c 84e9 76bd 351f 913c
000003c0: e129 60bd 29c0 983c fa25 963c 4a55 2ebc
000003d0: 742b 8038 162f 01bc 99ad 35bb 882a 023d
000003e0: b4de 0e3d c98f a33c ab90 283d 5584 b5bc
000003f0: 503d fe3c 499a 593b cf4e 733c b07d 8d3c
-0.043845333 -0.034467686 -0.039853167 -0.058954425 -0.05522569 -0.006358631 -0.009626059 -0.012779942
-0.029902395 -0.028784817 -0.012519488 0.018543223 -0.031130929 -0.014218869 -0.012204597 -0.040725168
-0.030129828 -0.010734904 -0.004360712 0.04302756 -0.005776612 -0.03647618 -0.036384843 -0.00206237
0.036598556 -0.033412255 0.029064583 0.050168004 -0.026268944 0.044919055 0.009148425 0.022157732
0.024437424 0.060524113 0.044605304 -0.010902354 0.03681898 0.05037024 0.0649133 0.004905391
0.01211528 0.0060685463 0.006222473 0.009145821 0.04189012 0.013002278 -0.03976763 -0.04251869
0.04865217 -0.06504318 -0.05590678 0.057576586 0.022500023 0.016173413 0.0026540696 0.016533485
-0.014857594 0.05240611 0.051967703 0.0015136511 0.011136093 0.015274943 0.008098967 0.059111554
0.03531417 0.032940004 -0.01855237 0.022444988 0.028626822 -0.0031249414 0.038201634 -0.0077286796
0.0060944203 -0.040530384 -0.03458472 -0.0011165556 -0.023737112 -0.032188114 -0.035677798 -0.005992406
0.0006602736 -0.007425158 -0.005778535 0.0037806921 0.027567277 0.02890631 -0.0063710823 0.04814015
0.021204608 0.02326653 -0.009600902 0.03114792 0.040724125 0.016623368 -0.012582986 -0.010298017
0.0068831393 -0.027686488 -0.02535441 -0.024346717 -0.05392029 -0.0586375 -0.02701273 -0.05959663
-0.007408133 -0.058000244 -0.012566125 -0.02166587 0.055489033 0.015443281 0.022388691 0.047722332
-0.041934278 -0.012138949 0.05859486 -0.0059985314 0.052958038 -0.0043776445 -0.032215495 -0.035156976
-0.011493499 -1.8742674e-05 0.019644234 0.029442066 0.03164201 0.01490173 -0.029753223 0.02229391
-0.0033914195 0.014892311 -0.045097817 0.016657257 0.053245086 -0.024162784 0.0063629835 0.01747657
0.005419329 -0.034597494 0.0075689238 0.01171193 -0.037574545 -0.015775248 0.002372689 0.03900773
-0.014833037 0.018876003 -0.003997684 0.038570013 -0.0083390875 0.008585576 -0.0062126312 -0.018003829
0.039227985 -0.008273379 -0.005088022 -0.0076404987 -0.009885511 0.027586572 -0.00085163215 0.058443
0.043338954 0.03580857 -0.004412068 0.04309853 0.007231213 0.0080533195 -0.020803919 0.034312457
0.038310833 -0.019521555 0.047080826 0.045052383 0.020048179 0.0065994565 0.037540328 -0.014550447
0.0054684225 0.027303718 0.020394782 0.049225 -0.00075394963 -0.014088213 0.045338742 0.005903532
-0.013997714 0.019024413 -0.0051769754 -0.004900816 0.019163143 -0.037358295 -0.042134415 -0.0047987816
0.007303338 -0.062459815 -0.009852414 -0.029012958 -0.01360637 -0.037736114 -0.024391647 0.0223482
0.06465645 -0.012914827 0.018377941 0.03486959 0.0024523868 0.05635909 0.01717794 -0.015031802
0.012753075 -0.016939672 0.014710533 -0.017724345 -0.0074916948 -0.057068057 -0.058084864 0.0033307667
0.027323501 -0.018935839 0.002845329 0.027483243 0.006631358 0.008509572 0.05467077 0.02446657
0.04437599 -0.007790054 0.031001473 0.052512582 0.01326033 -0.013175154 -0.014030788 0.046877947
-0.016047467 -0.007682845 -0.008298334 -0.008191283 -0.01688484 0.02048409 -0.06028129 0.017715076
-0.05472744 0.018646317 0.018328656 -0.010640452 6.1116094e-05 -0.007884761 -0.002772188 0.031778842
0.034880355 0.019966023 0.04115359 -0.022157827 0.031035095 0.0033203533 0.014850332 0.017271847

cls_head.0.bias f4 [128]
00000000: e6ef 22bc 5d99 093d 51e5 45bb 73c1 b83c
00000010: adb8 ac3c 2bc6 d13c f2e2 503c 0176 01bc
00000020: 7be3 9a3c 07bd cebc 24c6 6b3b 1c6b 153c
00000030: 14f3 c3bb 5f3b 06bd 4100 0a3d 8839 7e3c
00000040: 12a1 a03c 9cf3 b3bc 712b 5f3c b9f1 033d
00000050: df77 20bd f3cd 9e3b b85c bdbc 963a 9f3c
00000060: 672f 19bd f63d cc3c 8d7a ba3c f5b6 243c
00000070: 29ec a23c 0844 0d3d c807 1e3d 21c2 d0bc
00000080: 71aa 12bd e251 3f3c ac71 c3bc 0821 a53c
00000090: c65c 043b 5324 fcba ab3f 223d d91e b43b
000000a0: 7b46 1fbd 0106 623c 49d1 86bc 44d4 0bbd
000000b0: 4a53 acbc eb5d 95bc 4882 1ebc 20d4 d83c
000000c0: 18ae c5bc 32fa 8d3b 6d29 8dbc bddf c03c
000000d0: 1caa de3c 7784 20bd fc35 1b3c 086f af3c
000000e0: 50de 1f3d 4cd3 10bd 22ae adbc ec18 233c
000000f0: 8351 073d 23e3 3dbb 0f2c adbc 64ba 153d
00000100: f381 27bc 6be2 aebc ec6c 953c a1b8 0fbb
00000110: 2891 093d f309 dfba 7b75 efbb 531c 233c
00000120: a11e eabc dd85 843c 361a fe3c 6b9b d2bc
00000130: 5778 963c 3747 05bd 4149 123d 6a16 26bc
00000140: d758 bd3c 4613 6dbc b53b 1d3d ec56 e33c
00000150: 9786 0c3c 780e f0bc b328 a23c 2967 bfbb
00000160: ee70 6eb8 c42a d03b 77ac 18bc c59b 1dbd
00000170: 0792 aabc 7f17 4a3c b0dd 79bc 4a17 cf3c
00000180: 2909 933c 41ff b03b 9b89 d1bb 9dc8 2cbd
00000190: bc2e 70bc 7c67 c73c 80c0 cc3c 9481 5f3c
000001a0: 7322 ac3c a16e 6bbc b09b 853c d294 fdbc
000001b0: 0d8e 923c 6cd3 21bd 72e5 7bbc fbdc b8bc
000001c0: 8f07 033d 9df1 d43c d34b 1a3d 80ac f8bc
000001d0: e61c 6c3c 64c7 97bc 48df 2cbc cfe4 033d
000001e0: ff1a bf3c a2e3 883c e209 15bd bcb5 fab9
000001f0: 8e2b a63c 6af9 083d 3580 c93b ed80 0c3d
-0.009944892 0.033593524 -0.0030196498 0.022553181 0.021084154 0.02560719 0.0127494205 -0.0079016695
0.0189073 -0.02523662 0.0035976255 0.009119775 -0.005979905 -0.032771464 0.03369165 0.015516646
0.019608054 -0.021966748 0.013621197 0.032212947 -0.039176818 0.0048463284 -0.0231155 0.019437116
-0.037398722 0.024931889 0.022763515 0.010053386 0.019888 0.034488708 0.03858164 -0.025483193
-0.035807077 0.011677237 -0.023857914 0.020157352 0.00201969 -0.00192369 0.0396115 0.0054968414
-0.038885575 0.013795377 -0.016457217 -0.03413798 -0.02103581 -0.01823326 -0.009674616 0.026468337
-0.024130866 0.004332804 -0.017231667 0.023544187 0.027180724 -0.03918883 0.00947332 0.021415249
0.039030373 -0.03535776 -0.021201197 0.009954672 0.03303672 -0.0028974495 -0.021139173 0.03655471
-0.010223853 -0.021348199 0.018240415 -0.0021930116 0.033585697 -0.0017016515 -0.007307706 0.0099554835
-0.028579058 0.016177112 0.031018358 -0.025708875 0.01836793 -0.03253862 0.03571439 -0.01013718
0.023113651 -0.014469927 0.03838702 0.027751409 0.008577011 -0.029303774 0.019794798 -0.005841155
-5.6848796e-05 0.0063527543 -0.009318463 -0.03847863 -0.020821584 0.0123347035 -0.015250608 0.02527966
0.017948704 0.0054015224 -0.0063945777 -0.042183507 -0.01465958 0.024341337 0.024994135 0.013641734
0.02101252 -0.014369638 0.01630959 -0.030954752 0.01789 -0.03950827 -0.015374528 -0.02256631
0.03198963 0.025994116 0.037669968 -0.030355692 0.014411187 -0.018527694 -0.010551281 0.03220063
0.023328302 0.016710106 -0.036386378 -0.00047819118 0.02028444 0.033440985 0.0061493167 0.03430264

cls_head.1.weight f4 [128]
00000000: fb39 973f 4791 893f f4b2 8d3f ab7c 873f
00000010: 1102 8f3f 392c 8a3f 00be 8f3f 0421 8c3f
00000020: d2c4 8e3f 5d7f 903f 7a32 8a3f 8d7b 8a3f
00000030: b737 873f ead6 8e3f 7da4 8d3f d262 953f
00000040: ae69 8f3f 7496 883f 4c0f 873f 1756 943f
00000050: 0687 943f 14bd 913f c59f 863f 0287 943f
00000060: 2558 8c3f f7b1 8a3f db7d 8d3f 2d00 913f
00000070: 72d3 8c3f dd51 8c3f cd7b 853f bf27 8a3f
00000080: 531b 8a3f 7300 923f e1cc 8b3f 3af2 8d3f
00000090: ba7f 933f e927 8e3f 81ef 893f b9f0 893f
000000a0: 2997 873f 08e5 8a3f 63aa 8e3f 4ffa 8b3f
000000b0: 9cc5 8b3f af8c 8b3f 750d 913f 32f6 8c3f
000000c0: e715 863f ae12 933f c7b1 963f 4ea4 983f
000000d0: 710a 8b3f c437 8b3f e94c 973f e587 903f
000000e0: 0d9f 8f3f 8332 893f a37c 873f e780 873f
000000f0: 9a4f 933f c7fa 8c3f aa71 933f ea0b 843f
00000100: 12f6 8c3f 6542 8c3f b770 8f3f a9e2 8c3f
00000110: 5c9c 903f fdbc 883f 4242 8e3f be19 903f
00000120: 77f3 8b3f f10f 8b3f e1ee 8f3f 85f5 893f
00000130: 670a 903f 20f5 913f ee4a 8a3f d255 843f
00000140: da6c 883f 66a5 823f a049 8e3f 13dd 8e3f
00000150: 45a8 953f 268f 8c3f 3241 943f 4ef2 903f
00000160: c862 913f 32d6 8a3f 56a2 893f 409d 933f
00000170: 6c77 8d3f 21bf 943f 5d4c 8b3f a51a 863f
00000180: 902a 883f 3c34 883f 2aed 963f 0d93 843f
00000190: eda0 963f 1a9e 8e3f e7d2 8a3f 65bc 8a3f
000001a0: df02 943f 2ee6 8e3f 5d99 873f 9549 923f
000001b0: a82d 923f b139 963f c7f6 8a3f 6242 993f
000001c0: b1cc 8f3f 66d4 8b3f 5dd6 8b3f 02eb 923f
000001d0: 853e 8d3f 81be 923f c51b 8e3f db17 883f
000001e0: 9b54 8c3f c8d0 8c3f 9b56 883f 7831 8a3f
000001f0: 657d 833f 4b7a 823f bb95 9c3f e0e3 913f
1.1814569 1.074746 1.1070237 1.0584921 1.1172506 1.0794746 1.1229858 1.0947576
1.1153815 1.1288868 1.0796654 1.0818955 1.0563878 1.1159337 1.1065823 1.1670783
1.1204126 1.0670915 1.0551543 1.1588773 1.1603706 1.1385827 1.0517508 1.1603701
1.09644 1.083556 1.1054033 1.1328179 1.1002028 1.0962483 1.0428406 1.079338
1.0789589 1.1406387 1.0921899 1.1089547 1.1523354 1.110593 1.0776216 1.0776588
1.0593005 1.0851145 1.1145748 1.0935763 1.091968 1.0902308 1.1332232 1.1012633
1.0475434 1.1490076 1.1773003 1.1925142 1.0862561 1.0876393 1.1820346 1.1291472
1.1220413 1.071854 1.0584911 1.0586213 1.1508667 1.1014031 1.1519063 1.0316136
1.1012595 1.0957762 1.1206273 1.1006671 1.1297717 1.0682675 1.111397 1.1257856
1.0933675 1.086424 1.1244775 1.0778052 1.1253175 1.1402931 1.0804117 1.033869
1.0658219 1.0206726 1.1116219 1.1161216 1.1691977 1.0981185 1.1582396 1.1323946
1.1358271 1.0846617 1.0752666 1.1532364 1.105207 1.1620828 1.0882679 1.0476881
1.0637989 1.0640941 1.1791127 1.0357376 1.1767861 1.1141999 1.0845612 1.0838743
1.1563376 1.1163995 1.0593678 1.1428705 1.1420183 1.1736356 1.085656 1.1973383
1.1234342 1.0924194 1.0924793 1.1477969 1.1034704 1.1464387 1.1102225 1.063228
1.096332 1.1001215 1.065143 1.0796347 1.0272642 1.0193571 1.2233194 1.1397667

cls_head.1.bias f4 [128]
00000000: 0161 e03d 880a ae3d dc10 bd3c 0112 aebb
00000010: bb93 0bbb ca7d af3d 3dce e63c ae32 ed3c
00000020: 9516 ad3d efd3 903d b587 f83c 26b9 253c
00000030: 05e8 ba3d a2d3 7f3c a617 c63d 3203 e63d
00000040: 9cde f33d cf20 c63b 1fde 5c3c 2e06 343d
00000050: 0f88 e63d c83d de3d 8663 8a3d 9cf1 fc3d
00000060: 8ba7 d33d ae51 d43d 579c d63d 5d05 dd3d
00000070: 4854 f53d 02de e43b 2a1b e53c f25a 663d
00000080: f6d6 143c 545a 343d 334b 913c 4928 003d
00000090: 279e 0b3e 314b 173d 9c8d b03c af11 493c
000000a0: 829b cf3a 6500 223d 4090 e63d fe69 b63c
000000b0: 9ce2 b73d f8ab 5b3c d98c 043e 7aaa 1e3d
000000c0: 3bbb 9b3c 10d0 fd3d 517e 723d d865 4d3d
000000d0: bc25 8e3d 119a 9a3d e28b 063e ad85 073d
000000e0: f1bb 2b3d d280 a23c 3ee2 313d 7d58 fb3a
000000f0: 71fa 963d 0964 a43d c7e5 ef3d 060e 5bbc
00000100: 69e3 973d cb17 093d 3cb1 cd3d 5f75 453d
00000110: aec6 d53d 03d5 953d 82ff bd3d 7fe0 063e
00000120: a0f5 ab3d 287b 683c ec00 d13d b06d 853d
00000130: f8cf d93d 02df 633d 427f 193c 74c0 c13c
00000140: 54ea 113c 3df6 723a 5e8c c13c 0b59 873d
00000150: fd59 293e 049c 4e3d 68df 173e 2733 ec3d
00000160: d3a3 f13d d780 c33c 5188 fa3c 5284 ef3d
00000170: 1dec cb3d b4e3 693d 13f2 093d 0daf 853c
00000180: 0279 0e3d 9fb7 113c c5ba 033e b768 143c
00000190: a332 533d ff96 ce3d 707c b23c 4123 b23d
000001a0: 48cd 3d3d 30c9 e63d ddf5 0b3d 5e39 e23d
000001b0: 7cee 473d 8d4f 213e 73e9 b43d db7c 8a3d
000001c0: dd3f 083e 6ec8 d43c 60f5 a83d e266 f83d
000001d0: 9582 053d 44ba 063e d211 ca3d da58 c63b
000001e0: 9eea b03d e380 483c c3b8 e33d 0a5d 183d
000001f0: 4631 5a3c 435e e8bc ad99 0b3e 75fd fc3d
0.10956002 0.084981024 0.023079328 -0.005312205 -0.002129777 0.08568914 0.028174514 0.02895483
0.08451573 0.07071673 0.030338148 0.010114944 0.091262855 0.015614422 0.09672479 0.11231078
0.11907694 0.0060463916 0.013480692 0.043951206 0.1125642 0.108516276 0.06757264 0.12350771
0.10334691 0.10367142 0.10479038 0.107920386 0.11978966 0.006984473 0.027967054 0.056239076
0.009084454 0.044031456 0.017736053 0.03128842 0.13634549 0.036936942 0.0215519 0.0122722825
0.0015839192 0.039551158 0.11257982 0.022267338 0.08978769 0.0134077 0.12944354 0.038736798
0.019010177 0.123932004 0.059202496 0.050145954 0.06940791 0.07548917 0.13139299 0.033086468
0.04192728 0.019836817 0.043428652 0.0019176152 0.07371987 0.08026893 0.117137484 -0.013370043
0.07416422 0.033469956 0.100435704 0.048207637 0.10438286 0.073160194 0.0927725 0.13171576
0.083964586 0.014189519 0.10205254 0.06515062 0.1063537 0.0556326 0.0093687195 0.02365134
0.008905966 0.000926826 0.023626503 0.066087805 0.16538234 0.050441757 0.14831316 0.11533194
0.11798825 0.023865147 0.030582579 0.1169516 0.099571444 0.05710192 0.033678126 0.016318822
0.03478337 0.008893876 0.12864216 0.009058169 0.051561963 0.10087394 0.021787852 0.086981304
0.04633835 0.11268842 0.03417002 0.11046098 0.04881142 0.15753002 0.088335894 0.067620955
0.13305612 0.025974479 0.082499266 0.12128998 0.032595236 0.13156992 0.0986668 0.0060530724
0.086385 0.01223776 0.11119225 0.037198104 0.013317412 -0.02836526 0.13632841 0.123530306

cls_head.1.running_mean f4 [128]
00000000: b8b3 e33e d744 9bbf 4e65 84bd f297 9cbe
00000010: 78a9 063e 8166 fe3e fa10 af3e 2330 21bd
00000020: 2d5e 643f 3674 07bd c52c f03e 0a82 973f
00000030: 45fc 843e 4fe4 903f d061 d63e 2537 3d3f
00000040: ba3b 903f 072b 9e3d 5393 2e3f a4e6 7c3f
00000050: e138 17bf 8b02 19bf a21c ec3f f965 b63f
00000060: 4b00 5d3f a2d0 ef3e f728 653f 343a 243f
00000070: 9dc0 993f ffb6 073f 1439 a3be c59d 2540
00000080: 30ef 193d 67e2 febd 4f78 8b3f 9cc9 2a3f
00000090: c45a 123f e85c 243f 4521 0dbd 0109 e33d
000000a0: 9c36 4d3c 5639 743f 4488 283f ad06 113e
000000b0: 6cda 0e3f 9412 483e 044b 943f 8085 523f
000000c0: d94b 773e 4584 e43f 846e 83bd 6254 9cbe
000000d0: b6fe 513f 2354 e73e 7e93 d1bf 92f9 223f
000000e0: 35bb 85be 2271 fcbe 9d93 1bbe 0956 e33d
000000f0: ab55 3dbf dfb9 1d3f 9ee4 c53e 6b5f b63e
00000100: e366 8d3f c2a4 93be a08c 30bf 250a 09bf
00000110: 57be 063e 02dc 9d3f b120 1940 628c 00be
00000120: 63c9 853f fea1 903f ee70 c23f a8d0 483f
00000130: 6a23 d6be 8d4d e4be 0b93 a63e 0c02 7abb
00000140: 18c6 b8be d46d 833f 7dfc d43e 5533 bd3f
00000150: f71f 4a3f c535 173e 8664 b83e aea1 1b40
00000160: 529b 14bf f275 b1be 8acd 9abe 1872 593e
00000170: 3aff a9be 7872 243f 20d7 97ba 03e3 62bf
00000180: d643 4e3e 3767 493e 3055 babe ead2 e53c
00000190: c7e5 4f3f bf2a 103f 516a 72be dcd5 82bf
000001a0: 8f9d 82bf d382 af3f ff02 a13d 1132 cbbf
000001b0: 7897 2b3f bcc0 463d 3616 533f 0ed2 1840
000001c0: ebe8 0040 83f3 933d 0295 0540 932c 0140
000001d0: e28f df3e 0e6e 73bf ec07 943f ea64 543f
000001e0: 2244 2440 9d20 a53f 9e20 acbf 12f0 613e
000001f0: 9db9 43c0 9087 a23e c155 b93f 7df0 873e
0.44473052 -1.2130383 -0.06464635 -0.30584675 0.13150585 0.4968758 0.3419264 -0.039352547
0.892062 -0.03306981 0.46909156 1.183656 0.25973716 1.1319674 0.418715 0.7391227
1.1268227 0.077230506 0.6819355 0.9878943 -0.59071165 -0.59769505 1.8446238 1.424987
0.8632857 0.46838862 0.8951563 0.6415131 1.2011906 0.53013605 -0.31879485 2.5877545
0.037581623 -0.124455266 1.089609 0.6671388 0.5716975 0.64204264 -0.034455556 0.11085702
0.012525227 0.9539999 0.65832925 0.14162703 0.55802035 0.19538337 1.1585393 0.82234955
0.24150027 1.7852865 -0.064175636 -0.3053313 0.82029283 0.4518138 -1.6373136 0.63662064
-0.2611939 -0.49305063 -0.15193029 0.11100394 -0.73958844 0.6161174 0.38650984 0.35619673
1.1047024 -0.28836638 -0.68964577 -0.53531104 0.13158546 1.2332766 2.3926203 -0.12553552
1.0452083 1.1299436 1.5190713 0.78443384 -0.41823894 -0.44590417 0.3253406 -0.0038148193
-0.36088634 1.0267892 0.41598883 1.478129 0.78955024 0.14766605 0.36014193 2.4317431
-0.580495 -0.34660298 -0.3023494 0.2123493 -0.33202535 0.64237165 -0.0011584498 -0.8862764
0.20143065 0.1966828 -0.36393118 0.028054673 0.8120999 0.56315225 -0.23673369 -1.0221515
-1.0204333 1.3711799 0.078618996 -1.5874654 0.67028 0.04852365 0.82455766 2.3878207
2.0142162 0.072241805 2.0872197 2.0183456 0.4366446 -0.95089805 1.1564918 0.8296648
2.5666585 1.2900578 -1.3447454 0.22064236 -3.058204 0.3174405 1.4479295 0.26550665

cls_head.1.running_var f4 [128]
00000000: 6fe3 0c41 6e9e d540 3a28 d840 c10f ba40
00000010: 8f90 9141 a01f cb40 ab62 5e41 8e8f 0041
00000020: 1aa9 7f40 d843 6741 dfc2 0b41 609e 0441
00000030: 11ce 8c40 acc4 2441 f100 0641 847f fd40
00000040: 4b5c 4241 b649 8440 561b bd40 849f cf40
00000050: f9df 8a40 1736 8a40 46e6 b940 1b25 1641
00000060: 8bde 3841 4304 1a41 868b 2340 643a cc40
00000070: b17b bb40 45ee 8840 ce88 ff40 4432 2b40
00000080: f566 7f40 06ce 8940 4752 0341 9232 0441
00000090: 56b1 a841 0d55 8640 726c af40 94d0 6740
000000a0: 18b4 9c40 689a 3641 cef1 7d40 273a e040
000000b0: e221 b740 044d 8440 8ff1 4941 c97e d640
000000c0: a9b5 0541 e380 a940 6232 3d41 a1a4 7e41
000000d0: dd3f 4940 3dc9 5b40 3a11 c540 aeb2 ca40
000000e0: 13f9 ff3f 2ee7 4040 a7a3 8240 b5ad de40
000000f0: 1bd6 4f41 2194 b540 3895 8d3f 1f75 7440
00000100: 90b6 af3f 9ac6 c240 c726 6040 ce41 6940
00000110: fa9e 1741 b3bc 3a40 23eb 1141 6ec5 2641
00000120: 88cb 7e40 7d6b 3a41 983a a040 4e49 8340
00000130: b7b9 5c40 f8f2 0641 1b0a 8140 a62e 8540
00000140: ebfd e240 d9eb f940 0ed5 5041 f613 a441
00000150: bca4 6f41 d133 1c41 ca03 0441 a55e e240
00000160: e9cd e940 7c72 5d40 0336 0d41 0346 8540
00000170: f629 5541 99cb 0341 e8aa 0e41 0379 2d41
00000180: 65f9 a640 2980 9f40 2c9e a241 ad6e 3140
00000190: 825a 4e41 eb94 9540 7ac3 cd40 e2b7 0a41
000001a0: 0a11 6b40 9f11 b540 9891 9b40 69c0 0741
000001b0: 42d3 8c41 eb92 d740 c051 c240 7439 ca41
000001c0: 7412 8040 2c38 e73f d22f 9f40 bf97 5141
000001d0: f152 ab40 8082 e540 db81 953f 68ee 0041
000001e0: a0bb 8d40 f7be d340 8c19 d340 8c8e 9c40
000001f0: cfa2 4640 704a bf40 08e0 2141 6461 2341
8.805526 6.6755896 6.7549105 5.814423 18.195585 6.3476105 13.899089 8.035048
3.9946961 14.454063 8.735076 8.288666 4.4001546 10.298016 8.37523 7.921816
12.147532 4.133998 5.909587 6.488222 4.3398404 4.319103 5.8093596 9.384059
11.554332 9.62604 2.5553908 6.382128 5.858849 4.2790856 7.98545 2.674943
3.990659 4.3063993 8.207587 8.262346 21.08659 4.197882 5.481988 3.6221056
4.896984 11.412697 3.9678836 7.0070987 5.722886 4.1344013 12.621474 6.7029767
8.356851 5.2969832 11.8248005 15.915193 3.144523 3.4341576 6.158353 6.3343115
1.9997886 3.01411 4.082477 6.9587045 12.989772 5.674332 1.1061163 3.8196485
1.3727589 6.0867434 3.5023668 3.6446414 9.476313 2.9177673 9.119906 10.423201
3.9811726 11.651242 5.0071526 4.1026983 3.4488351 8.434319 4.0324836 4.1619444
7.093496 7.81004 13.052015 20.509747 14.977718 9.7626505 8.250925 7.0740533
7.3063855 3.4601126 8.825686 4.1647964 13.322744 8.237206 8.916725 10.842044
5.2179437 4.9843946 20.327232 2.77238 12.897097 4.6744285 6.430112 8.669893
3.672915 5.658401 4.8615227 8.484475 17.603153 6.7366843 6.0724792 25.278053
4.0022526 1.8064017 4.9745874 13.099547 5.3538747 7.17218 1.1680254 8.058205
4.4291534 6.617061 6.5968685 4.8924007 3.103687 5.9778366 10.117195 10.211277
